GameBreaker/NNModels/GameBreaker-128952.onnx (onnx, 325395 bytes, 9 tensors)

action_model._discrete_distribution.branches.0.bias f4 [2]
00000000: e42a 5fbc e62a 5f3c
-0.013621066 0.013621068

action_model._discrete_distribution.branches.0.weight f4 [2, 256]
00000000: 6d01 323b 8d8e 05bd a40a 07bd e2dc 3dbd
00000010: c064 06bc e324 933c 01c5 0d3c 8c97 b13c
00000020: 61da babc 5bb6 613c fbbc 9b3c 4be6 90bc
00000030: 334a 9739 3ae6 263c bf39 7cbc c18a 6e3b
00000040: 8c87 d0bc 571f 96bc 809c dbbb dff6 4cbd
00000050: 74de 81bc fd9f 303c e9f7 5dbb 2925 41bb
00000060: 80df a73b 2261 033c 6609 8e3c c3c2 3bbb
00000070: ce47 43bc 3e1a e2bc 52ff b03b c400 b13a
00000080: 8df4 973c 638f 533c 1556 b2bc e1e3 0abc
00000090: 4af6 a03b 2f97 e73a 6543 8fbb bf4e a4ba
000000a0: 6842 c5bb 47e5 303c eab4 063c 9ebc a53b
000000b0: 310f 87ba eec3 bfbb 448a d2bb 68c4 0f3c
000000c0: b795 943b 72fc 5fbd f14a 793b aeb6 783c
000000d0: ab28 1c3c 8e77 983c f2bc 0939 dd57 903b
000000e0: 9936 e83b f0f6 453c 0c78 7cbc 95fe f3bc
000000f0: 0e0c eebb 9000 fa3b 0e43 4f3b 2e53 b83b
00000100: 06cd 6b3c 4027 eb39 aff1 153c fcde 19bb
00000110: 1736 5abc c0b0 45bd 89bb 9fbb 6620 3cbd
00000120: f7c3 c13b 1a7d 673c 7611 e03a d94d 983c
00000130: d1f2 223d b97d 213c 3296 f2bc b8e6 ceba
00000140: afba 72bc 5316 45bc e570 8c3a 09ab e7bb
00000150: 489f cb3c f828 15bd ded9 28bd 5810 5bbc
00000160: cd76 c33c e64f 173c 7668 863b b6c5 d83b
00000170: add8 d2bc f57e ffbb eb2d 053b 3feb 0a3c
00000180: 3c55 70b7 53b5 ef3c 32ce 173c d4e4 563b
00000190: 7641 34bc e1d9 43bc 4caf 62b9 3f38 84bc
000001a0: 5614 08bd 9248 e0bc f03a 713c 9207 03bc
000001b0: a0a5 f33b 4fbd 3ebc 173d 623c 352d 4b3c
000001c0: 7cde 43ba b4cc 483c 8b85 d43b e69d 4a3c
000001d0: 1820 de3b 26f7 1abc 2101 613c a86a 353c
000001e0: 7809 113b da56 c338 426f d23b 8a45 263c
000001f0: 79cf b63b 60d3 d4bc 5edd 2d3c 5d5c a53b
00000200: 83ba 3dbc b749 8aba 3fc4 ae3c d7fa a93b
00000210: 0dec bf3b 73f2 81bc 7e3e c83b 2cdb 5eba
00000220: ad5e be3b 97e1 433c df9f 043b 802c d33a
00000230: ddd1 8f3b b032 843c 35cb 30bc c125 62bc
00000240: 03dc f33b 16ee 793b d5c3 5e3a 9890 983c
00000250: 2975 1f3a d574 34bd bcc2 16bc fe07 e2bc
00000260: 77c9 8bbc 231f 263c cab2 73bc fbba 323c
00000270: 2a45 383c f77b bd3b 9abe 363c e98c 8e3c
00000280: 26af 8bbc 03c2 0bbc 599c 9c3b 4b83 b7bc
00000290: 68d3 e13b c3f2 063b 0b47 ac3a 2e22 6f3c
000002a0: b21d a33c 710a c43b 7d6b 2ebd 2846 ddbc
000002b0: f036 f63b d63d 503c 54b0 bc3c 17ab 52bd
000002c0: 9c51 d13c 08eb 4abc 098a b8bc 139d 4d3c
000002d0: 170a c1ba 9b2b b83b 35a3 893c 13fc 8dbb
000002e0: 7987 093c 08de e5bc ccec 42bd 408f 043c
000002f0: 44ff b83c b818 89ba db37 2e3c a111 bfbb
00000300: c7a1 263d 258d 6b3c edb5 b43a fc9f dc3a
00000310: bb3c a03c 6a51 423c 1ad5 04bd 4b7e dd39
00000320: 1fa8 bb3c 5f04 833c 134a c23c c51e 07bd
00000330: 6407 8c3c 7c47 9dbb bd35 d73c a9ca 193c
00000340: ec18 433c 60be d2bc 0429 fdbb 1be3 16bd
00000350: 9bcf d0bb 1b71 d539 4855 1bbd f6b7 403c
00000360: dc2d 9cbc 4f26 bfbc dd3c 81bb 9761 21bb
00000370: 887a aa3c b227 4f3c 3847 6a3b 22e0 a9bc
00000380: 0b4c 00bc 84cf b93a 3e45 1abd d8cf b3bb
00000390: 570c a53c ce17 33bc 21f1 0e3c 0210 413c
000003a0: 848d 2d3c 6795 363c ae24 9b3b efe4 333b
000003b0: 8428 39bc 871f 563c 3c2b ae3c 7f2a b0bc
000003c0: 4dac 983c 4c80 c63b a2e4 613b b003 9b3c
000003d0: 9d0d 0d3c c2b3 2ebc a05a aa3c f5a5 96bb
000003e0: 8719 e6ba 99cc 203c 4feb 463b a9f4 a43c
000003f0: 8c47 b03a 726d 14bb 7dac 4bbc 77a2 3f3c
0.0027161494 -0.03260665 -0.032969132 -0.04635323 -0.008202732 0.017961925 0.008652926 0.021678708
-0.02280921 0.013776387 0.019011011 -0.017687937 0.00028856247 0.010186726 -0.015394627 0.0036398622
-0.025455259 -0.01832549 -0.006702006 -0.050040122 -0.015853144 0.010780332 -0.003386969 -0.0029471612
0.005123079 0.008018764 0.017338466 -0.0028650023 -0.011918975 -0.027600404 0.0054015303 0.0013504256
0.018549228 0.012912604 -0.021769563 -0.008477182 0.0049121724 0.0017668958 -0.0043720477 -0.0012535675
-0.006019879 0.0107968515 0.008221844 0.0050578853 -0.001030421 -0.005852214 -0.006425174 0.008774854
0.004534449 -0.05468411 0.0038039053 0.015180273 0.00953118 0.018611696 0.00013135726 0.0044050054
0.0070865867 0.0120828 -0.015409481 -0.02978448 -0.0072646206 0.0076294616 0.003162566 0.00562515
0.014392143 0.00044851936 0.00915186 -0.0023478856 -0.01331856 -0.048264265 -0.004874651 -0.045929335
0.0059132534 0.014128948 0.0017095048 0.018591808 0.03978235 0.009856635 -0.029612634 -0.0015785312
-0.014815017 -0.012029248 0.0010714798 -0.0070699495 0.024856225 -0.036416024 -0.0412234 -0.013370596
0.02386036 0.009235358 0.004101808 0.006615366 -0.025738085 -0.007797117 0.0020321559 0.008478939
-1.432496e-05 0.029261267 0.009265469 0.00327902 -0.011001935 -0.011953802 -0.00021618343 -0.016140101
-0.03322252 -0.027378354 0.014723524 -0.00799741 0.0074355155 -0.011641814 0.01380851 0.012400915
-0.00074718124 0.012255836 0.006485646 0.0123667475 0.006778728 -0.009458339 0.013733179 0.011072792
0.0022130888 9.314502e-05 0.0064219544 0.010148415 0.005578932 -0.025979698 0.01061186 0.005046411
-0.011580112 -0.0010550533 0.021333812 0.005187373 0.005856997 -0.01586268 0.0061109653 -0.0008501287
0.005809626 0.01195564 0.0020236892 0.0016111284 0.0043890313 0.016137451 -0.010790636 -0.013802947
0.007441999 0.0038136295 0.0008497809 0.018623635 0.0006082827 -0.044056732 -0.009201702 -0.027591702
-0.01706384 0.0101392595 -0.01487417 0.010908837 0.011246959 0.0057826 0.011153841 0.017401176
-0.01705129 -0.008530143 0.0047793803 -0.022401473 0.0068916567 0.0020591475 0.0013143731 0.014595551
0.01991162 0.00598269 -0.042582978 -0.027010992 0.0075138733 0.012710055 0.023033299 -0.051432695
0.02555161 -0.012385137 -0.022526758 0.012549656 -0.0014727738 0.0056204326 0.016801456 -0.004333028
0.008394116 -0.028059974 -0.04758911 0.008090794 0.022582658 -0.0010459637 0.010633434 -0.005830959
0.040681627 0.014376913 0.0013787128 0.0016832347 0.019560209 0.011860231 -0.032429792 0.000422465
0.022907315 0.015993295 0.023716962 -0.03298833 0.017093368 -0.0047997814 0.026270742 0.009386697
0.011907797 -0.025725543 -0.0077258367 -0.03683768 -0.0063724048 0.00040710796 -0.037923127 0.01176261
-0.019064836 -0.023333697 -0.003944023 -0.0024624818 0.02081038 0.012643741 0.0035748016 -0.020736758
-0.00783063 0.0014176224 -0.03766369 -0.0054874234 0.020147486 -0.010930968 0.008724482 0.011783602
0.010592822 0.011144019 0.004734597 0.0027449687 -0.011301164 0.01306904 0.02126085 -0.021504639
0.018636847 0.0060577746 0.0034468551 0.018922657 0.008609203 -0.010662975 0.020795166 -0.0045974203
-0.0017555215 0.009814405 0.0030352657 0.020136194 0.0013449057 -0.0022648242 -0.012431261 0.0116964495

action_model._discrete_distribution.branches.1.bias f4 [3]
00000000: 3d3f 5cbc 103c 33bc 37e1 b83c
-0.013442812 -0.010939613 0.022568328

action_model._discrete_distribution.branches.1.weight f4 [3, 256]
00000000: 4472 16bc 2122 af3a 2b06 6a3c 1ded 62bc
00000010: d70b f43b 41f6 09bc 28ba 82bc cade 313c
00000020: 4edc c2bc 7b37 cd3c ea14 f23b bd2a 8abc
00000030: 2854 823c 17d7 a83b 5485 243c cfd9 0bbb
00000040: 191c 8abc d9f9 2f3b c29d b03c 6b65 0d3c
00000050: dbbe 2fbc e01f 1bbb 381b d7bb 8676 683a
00000060: 61d1 053b 7a02 4139 869d d33b b13c a83a
00000070: 0c60 03bc f5d4 c93b 65d9 c33c 0097 c5b9
00000080: 0467 f53b 6894 0dbd 210c b939 a298 cabc
00000090: b0d4 91bc b9fe b63b 564c 433b 45c8 d63b
000000a0: 113a d53b de76 9539 cea4 903a fd6c 3e3c
000000b0: afdc 1fbc 149d 043c f4c1 35bd a16b 183b
000000c0: fb20 0dbd 1de7 933c 8420 533c dff9 853c
000000d0: 56f0 65bb 5ef1 7f3c 187f dc3b cc39 4e3c
000000e0: d37e 283c bcef be3c 7e68 aabc 56f6 1dbc
000000f0: 319c a0bc f7cc e53b fac4 033b ea68 083c
00000100: 3ac2 823c 4db7 5dbc 75e0 d13c 2379 f3ba
00000110: 7cd1 813c 8a6d 223c 91c0 983b 6c71 323c
00000120: c1d8 c93c 80b1 b63c a682 9e3c 0e5c c53b
00000130: 736c 043d 7909 69bc b89d efba b626 273c
00000140: 829f 49bc a882 003c 4929 443b f9ca 91bc
00000150: 9ce0 2a3b b8f0 bf3c 9540 2bbc 0293 13ba
00000160: b5e0 00bc 581f 5c3b 55d9 adba 1856 193c
00000170: a697 a8bb 33da 26bc fbed 8f3c f300 813c
00000180: 37f4 083a e32e 16bc 7ee6 be3c ff8b a23a
00000190: 48f5 d1bc c31d ddbc 7ea0 853b 8ef7 e0bc
000001a0: d010 36bc bab3 74ba cada 1d3c a380 d93c
000001b0: 6f32 843c a354 9bba ab6c e93a 37d9 d4bc
000001c0: b99f 8cbc 0ee7 3c3c b461 57ba 20d2 1bbb
000001d0: bcfe aebb 12cc 3cbc b6e8 c33b 77e2 08bc
000001e0: c01b bbba 4bd3 f43a c0e2 e83c 234c c9bb
000001f0: 3db3 9d3c 55ab a2bc 7ea1 9b3c b52f 97bb
00000200: c9df 98bb 18cc 0bbc c70b da3b 588a 10bc
00000210: ce92 5fbc 6d62 19bd 73c2 22bc 3384 a0ba
00000220: 8cec d93b 5055 333b a1e5 19bd 2e53 edbb
00000230: 7aa1 a63b 6a5b 3c3c 078c 24bc 59c7 93bc
00000240: 8c85 ad3c a873 d0bc 0ec0 a1bc 86ae 50bb
00000250: 9262 1ebc 1c4b 0f3c afec 7d3b 3323 02bc
00000260: 8f47 90bc fc17 1f3c 0d89 92b9 31a3 c03b
00000270: 2bff 30bd 2b59 633c f271 9b3c c6e5 1fbc
00000280: 485a a9bb df60 e4bc 9a4b 263c e670 a8bc
00000290: eb36 243b 56a5 c5bc 8b90 e3bc 1e21 c23c
000002a0: e586 c13c 394f aa3c ad11 683b dd15 9fbb
000002b0: a59c c13b 7fb5 663c 9ef2 eeba 5f3d 2abc
000002c0: 7153 133c 4dcd 1abc e8f7 d3bc dd7a a6bc
000002d0: acf6 9ebc ef84 d03c 6575 2abb 7d30 7f3b
000002e0: 9389 5b3b af57 213b fce0 48bc c4df 3e3c
000002f0: b602 2ebc f2e8 b0bc c19d 783c 2f0f 023b
00000300: 11d8 6fbc f036 953b cae5 4b3b 62ce babb
00000310: bd2d 8d3c b56d c13c dfb9 febb e293 dfba
00000320: 5cc6 edbc b980 e13b 270a 8bbc 0f48 79bc
00000330: 1c1b b83c cbab f9bc 2dfd c03c c274 2fbb
00000340: 50e8 af3c f40b 9a3c 71ef 003b f8c4 57bc
00000350: 1758 503a 2f54 113c a3ab 83bc b35b 43bd
00000360: f9ee a6bc 4d1d 1cbc 278a 6cbc 0b55 923a
00000370: 3cd3 843c d331 11bc 8df3 6c3c f26b 92bb
00000380: 805a 0a3c 9b12 403b 4b12 87bc 5af8 ddbb
00000390: 6b54 993c 1e30 69bb fc97 53bc c73b df3c
000003a0: a9d9 fa3b cdcc 933a 8d12 803b c35b a2bb
000003b0: 2d3a 9bbc e818 ce3c 92b0 e53c ca9b 95bc
000003c0: 3fbc d73c a68c 833b 186e 873c 1a13 18bd
000003d0: 9cb7 813c c685 93bc b33e 9f3a 861c 233a
000003e0: 59f5 1dbb aa84 52bc 8cf8 ecb7 66b7 ee3c
000003f0: d776 d8ba 1514 af3c aa1f dc3b 2924 4a3c
-0.0091825165 0.0013361612 0.014283697 -0.0138504775 0.0074477005 -0.008420528 -0.015957907 0.01085634
-0.02378669 0.02505087 0.007387747 -0.016866082 0.01590927 0.005152594 0.0100415535 -0.002133954
-0.016859101 0.0026851802 0.0215596 0.008630137 -0.010726656 -0.0023670122 -0.006564524 0.0008867759
0.002041899 0.00018406837 0.0064579872 0.001283547 -0.008018505 0.0061594197 0.023907373 -0.00037687272
0.007489087 -0.03456536 0.00035294986 -0.024730984 -0.017801613 0.0055845645 0.0029800138 0.0065546357
0.006507166 0.00028508058 0.0011035444 0.0116226645 -0.009757205 0.008094091 -0.04437442 0.0023257511
-0.03445528 0.01805454 0.01288617 0.0163545 -0.0035085878 0.015621511 0.006729018 0.012587022
0.0102841435 0.023307674 -0.020801779 -0.009641251 -0.019605728 0.007012959 0.002010642 0.008325795
0.015961755 -0.013532472 0.025619725 -0.001857553 0.01584696 0.009913811 0.0046616276 0.0108913
0.02463949 0.022301435 0.019349407 0.0060229367 0.032329988 -0.01422345 -0.0018281257 0.0102021005
-0.012306096 0.007843651 0.0029931834 -0.01779698 0.002607382 0.023430213 -0.010452409 -0.0005629511
-0.007866074 0.0033588018 -0.0013263623 0.009358905 -0.005145031 -0.010183859 0.017569533 0.015747523
0.0005224379 -0.009166452 0.023303267 0.0012401341 -0.025629655 -0.02699173 0.00407797 -0.027461793
-0.011112407 -0.00093346427 0.009634683 0.026550597 0.01613733 -0.0011850785 0.0017808875 -0.025982482
-0.017166005 0.011529697 -0.0008216158 -0.0023776367 -0.0053404253 -0.0115232635 0.005978669 -0.008354775
-0.0014275238 0.0018678693 0.028428435 -0.0061431094 0.019250507 -0.019857088 0.018997904 -0.0046138414
-0.004665349 -0.008532546 0.006654236 -0.008822046 -0.013645841 -0.03744738 -0.009934056 -0.001224643
0.006650513 0.0027364083 -0.037572507 -0.007242582 0.0050851675 0.011496404 -0.010043151 -0.018039392
0.021181844 -0.025445774 -0.0197449 -0.0031842305 -0.009667056 0.008745935 0.003874581 -0.007942962
-0.017612247 0.009710308 -0.000279494 0.005878829 -0.043212097 0.01387624 0.018975232 -0.009759372
-0.005168233 -0.027878223 0.010149861 -0.020561647 0.0025057148 -0.02412669 -0.027778884 0.023697432
0.023623893 0.02078973 0.0035410926 -0.004854901 0.005908566 0.014081358 -0.0018230265 -0.010390609
0.008992062 -0.009448362 -0.025875047 -0.020322258 -0.019404732 0.025454013 -0.0026009914 0.0038938813
0.0033498749 0.0024618914 -0.012260672 0.01165003 -0.0106207635 -0.021595452 0.01517433 0.0019845476
-0.014638917 0.004553668 0.0031112307 -0.0057008723 0.017233724 0.023611883 -0.0077736224 -0.0017057622
-0.02902525 0.0068818 -0.016972614 -0.015214934 0.022473864 -0.030477425 0.023558224 -0.0026772474
0.02147308 0.018804528 0.0019673968 -0.01316952 0.0007947697 0.008870169 -0.016073054 -0.047694873
-0.020377623 -0.00952847 -0.014437235 0.0011164261 0.016214006 -0.008861977 0.014462364 -0.0044684345
0.008444428 0.0029307965 -0.016488215 -0.0067739906 0.018717011 -0.0035581659 -0.012914654 0.027250184
0.0076553416 0.0011276245 0.0039084614 -0.0049547865 -0.018948639 0.02515836 0.028038297 -0.018262763
0.02633488 0.0040145693 0.016531989 -0.03712759 0.015834622 -0.018008124 0.0012149423 0.0006222207
-0.0024102537 -0.012849012 -2.8249131e-05 0.029140186 -0.0016514909 0.02137188 0.006717642 0.012337723

discrete_action_output_shape f4 [1, 2]
00000000: 0000 0040 0000 4040
2.0 3.0

network_body._body_endoder.seq_layers.0.bias f4 [256]
00000000: 45b5 e83b f60a 7cbc 8efb 523d 7c5a f8ba
00000010: 4acc 7cbb e953 193d e2fd 7e3c 128a 293d
00000020: 86bd 9bba fe42 9b3b 4d2b 56bc 08d2 f53b
00000030: 1b42 0ebd 18fc e83b 2c97 f03a 26f5 2cbc
00000040: e342 2f3c 0a73 88bc c838 7a3c 52bc 7cbc
00000050: a520 833b 89d4 06bc 0a8b 7b3b 0626 49bc
00000060: 37b1 77ba 6bef 133d bcd5 4ebc 0303 bb3b
00000070: 9ebc 313d 4f73 50bc eba9 8cbc feb4 a63c
00000080: 4f10 84bc 376f 343d 8b6b b8bb a96f c53c
00000090: e0b7 aabc 018a 28bc 2055 083d e049 9c3c
000000a0: 7f9e 4d3c e40c 953c 34e9 0b3d 6732 f23c
000000b0: ffad 0abd 742b 0fba a2a1 5fba 2f7c 60bd
000000c0: 2b4f 49bb eb94 b63c 0f39 9c3b 93e1 c63a
000000d0: 559b fc3c 4b93 093c 1e79 8dbb 45b6 733d
000000e0: 60fb 7f3c 2829 5bbc 8d0e 413c 7be9 0c3d
000000f0: fa1d b53b 06b0 4a3c c620 16bb 6dee 01bd
00000100: 106b 6ebc 6669 90bc 09ca f13b c323 38bc
00000110: e7a3 753c 431f 303c 319b 113d cb7d 253d
00000120: 17ab 11bc 6bc6 4d3b 24b0 323b 7ef0 37bc
00000130: 3c54 073a e723 4b3c f60d 22bc 1244 193d
00000140: f190 66bc 5239 6ebc 1245 16bd 4ec4 1f3d
00000150: 8048 c1bc 5d17 05bc b5a4 f5bc 1d4f a53c
00000160: f5c3 8e3c 1097 ebbc 92f3 95bb 9698 9cbc
00000170: 10dc dabb 78d9 23bb 8c40 8dbc 1a5d 173b
00000180: ab96 8fb9 db34 d9bb 4598 65bc 6429 9bbc
00000190: aba0 2abc e52c f43b 7ef1 0ebd c1e4 da3c
000001a0: 77fc 7dbd 3e4c f6bc f852 e1bb 9722 03bc
000001b0: 3c00 253c 7823 f33a 308f d13c b550 0c3d
000001c0: 61cf 5abb eed3 943b 0df7 85bb 57cd 533c
000001d0: 2940 843c 1625 89bc 7a86 86b9 ee0e 54bc
000001e0: 3ed3 b33b 2b8e 68bc e781 453c f678 c93c
000001f0: 16fc 2e3d 2e57 4c3d 50c0 d4bc d5b0 09bd
00000200: 12ec 183d 9608 39bc 3faa fc3c abce 72bc
00000210: 1f9d eb3c 98cd 0f3d f222 283c 85b2 cdbc
00000220: 4677 163d 498e acba 7867 be3c eacc 01bc
00000230: d4db 7bbb a3e1 593c ecc6 023b 1d68 ff3b
00000240: f885 86bc 4307 023c 8674 b7b9 104b 9cbc
00000250: 887b 7abc 7053 623b ea93 943c bad4 933c
00000260: 0be5 fb3c c7ac 00bd 2bed 7fbd dd6d 803d
00000270: 994f b93c a109 e6bc f603 263d 1c96 c23b
00000280: 3488 91ba bffa 883c 09c9 ac3c 6e28 09bc
00000290: dbb0 123c 8686 f53b c212 e0b9 16ae 30bd
000002a0: cb9c b93a 608f 943b c2b9 25bb a560 103c
000002b0: 7401 dbbb aaf7 19bc 1cc9 5f3b a646 f13b
000002c0: df7d 15bc 2e72 a2bc c854 263c 4fef 1ebc
000002d0: 7d0d 1f3d 3c77 4d3d 277b 2dbc 74e3 273a
000002e0: dd6c 333d 4d0f 5d3b 5f95 f2bc 135d 65bc
000002f0: c385 2e3d 47d1 b03c 408c b9bc 9f60 743a
00000300: bf95 81bb eab7 303b 352b 09bd 0d09 90bc
00000310: 4feb 953c 8c8e f23b 06ec 0ebc e6e2 28bc
00000320: f693 0d3d d68b fc3a defe 143c 8dc6 7abc
00000330: 354f 583d 39a5 253d b6fc d9bb 3ee3 47bc
00000340: 62d5 263c 99db cb3c 61f1 87bb ae6e 1f3c
00000350: 6b75 143d e313 013d c840 b63c 1388 03ba
00000360: 00ac 05bc 756a 9c3c d1c0 f5bc c770 863d
00000370: 0742 c1bc 31a4 c7bb 45d3 303d eabe 863c
00000380: 5cbf 993c a604 7b3c 87e0 a03c 2e97 b3bc
00000390: 9f3f c3bb 1506 8a3c e01c f2ba adbc 56bc
000003a0: 0e23 a23b 46eb 7f3d 344b c83c bb31 0a3d
000003b0: 5b3c 453c 9653 ee3c 6012 803c 0cf2 f53c
000003c0: 0936 4ebc 7f26 c93c a8ba 38bc e9e2 b33b
000003d0: 4d24 003d 375c d73c c83d e93c fe42 0c3d
000003e0: fe90 bfbc 68aa a1bb 7695 9f3c 599f 373d
000003f0: 0445 793c 299c e6bc 862e 823c 5f80 faba
0.007101687 -0.015383473 0.051509432 -0.0018947865 -0.0038573914 0.03743354 0.01556346 0.04139144
-0.0011882044 0.0047382107 -0.013071847 0.0075018443 -0.03473101 0.00711013 0.00183556 -0.010556495
0.010697099 -0.016656417 0.015272327 -0.015425758 0.0040016943 -0.008229383 0.0038382434 -0.012277132
-0.00094487093 0.036117 -0.0126242 0.005707146 0.04339277 -0.012722804 -0.017170867 0.020349976
-0.016121058 0.044051375 -0.0056280545 0.024101095 -0.020839632 -0.010286809 0.033284307 0.019078195
0.012549995 0.018194623 0.034157947 0.02956505 -0.03385734 -0.0005461492 -0.000853086 -0.05480593
-0.0030717354 0.022287806 0.004767544 0.0015173428 0.030835787 0.008396934 -0.004317417 0.059499998
0.015623897 -0.013376512 0.011783254 0.03440235 0.005527255 0.012371069 -0.0022907718 -0.03172152
-0.014551893 -0.017628383 0.007378821 -0.011238995 0.014992691 0.010749641 0.035548393 0.04040317
-0.008890889 0.0031398784 0.0027265633 -0.011226771 0.0005162393 0.0123986965 -0.009891024 0.037418433
-0.014072643 -0.014540033 -0.036686964 0.03900557 -0.023594141 -0.008123246 -0.029985765 0.020179326
0.017427424 -0.028758556 -0.004576155 -0.019115727 -0.0066790655 -0.0025001448 -0.017242692 0.0023096264
-0.00027387342 -0.0066286153 -0.014013355 -0.018940635 -0.010414283 0.007451641 -0.034898274 0.026720406
-0.062008347 -0.030065652 -0.0068763457 -0.008003852 0.010070857 0.0018549999 0.025580972 0.034256656
-0.0033387768 0.0045418655 -0.0040882886 0.012927375 0.016143875 -0.016741317 -0.00025658665 -0.012943013
0.0054878285 -0.014194052 0.012054897 0.024593811 0.042720877 0.04988783 -0.025970608 -0.033615906
0.03733451 -0.011293551 0.030842898 -0.014819781 0.028761445 0.03510818 0.010262238 -0.025109539
0.03673484 -0.0013164963 0.023242697 -0.0079223905 -0.0038430588 0.013298425 0.0019954992 0.0077943937
-0.016421303 0.007936302 -0.00034991297 -0.019078761 -0.015288241 0.0034534596 0.018136937 0.018045772
0.030748865 -0.031414773 -0.06248204 0.06270955 0.022620963 -0.028080763 0.04053112 0.0059383046
-0.0011103214 0.016721128 0.021091955 -0.008371456 0.008953298 0.007492843 -0.00042738585 -0.04313477
0.0014161108 0.004533693 -0.0025287722 0.008812104 -0.006683523 -0.009397427 0.003414697 0.0073631583
-0.009124248 -0.019829836 0.010152049 -0.00970061 0.038831223 0.05016254 -0.010588444 0.00064044376
0.043804992 0.0033731044 -0.029612241 -0.013999241 0.042608034 0.021584166 -0.022649884 0.0009322259
-0.0039546187 0.002696509 -0.03348847 -0.01758244 0.01830068 0.007402247 -0.008723265 -0.010308003
0.034564935 0.0019267749 0.009093968 -0.015306127 0.052809913 0.04044077 -0.00665244 -0.012200175
0.01018271 0.024884986 -0.0041486477 0.009730978 0.03624479 0.031513106 0.022247687 -0.000501753
-0.008158684 0.019093731 -0.029999169 0.06564479 -0.023591055 -0.006092571 0.043170232 0.016448457
0.018768005 0.0153209325 0.019638313 -0.021922674 -0.005958512 0.016848603 -0.001847174 -0.013106507
0.0049480265 0.062480234 0.024449922 0.033738833 0.012038316 0.029092591 0.015633762 0.030022644
-0.012586125 0.02455449 -0.011274971 0.0054896963 0.03128462 0.026289089 0.028471842 0.034243576
-0.023384567 -0.004933644 0.019480448 0.0448297 0.0152142085 -0.028150635 0.015891325 -0.0019111744

network_body._body_endoder.seq_layers.0.weight f4 [256, 52]
00000000: 7ef5 cdbd c2ee 673e 40f7 5ebe 656e 0b3e
00000010: 094a b4bd e4d3 1cbe 86d1 01ba 8295 173e
00000020: d7b0 2d3d 6367 6a3d 7dff 3fbe c641 ccbb
00000030: b31e 303e f843 0bbe 5fab 0bbe 421b 683d
00000040: 368b 0339 a1d4 043e 0ab7 de3c ddad c0bd
00000050: db6e 86be d315 b6bc b9eb 913e 8ab5 143e
00000060: 64f2 a7bd 2296 5d3d 8f74 143e 672e d6bc
00000070: 37c6 babd 432c 643d eb20 7abe 0006 823e
00000080: da19 aebd 419e 03be 71af 37be 6d28 aa3d
00000090: 1e71 483e 919a fc3d 675a 883e 2573 81bc
000000a0: 59dc 123e e148 ccbd 287f 483e 48b4 ff3d
000000b0: e519 4ebe 4230 fb3c 81e2 2cbe b19d 26be
000000c0: f189 c8bd 2101 8e3c 2e8e e53c 6388 b0bd
000000d0: fc45 60be 27ba d0bd a98d 523c a67c 8cbe
000000e0: fd82 de3d 8fa8 95bd 6164 1c3d cb56 b1bd
000000f0: 012a 31be 1aa0 813d 1bd1 e83c b9c8 4f3e
00000100: 6f44 553d 6c41 1ebe 99fd 183e afb6 c0bd
00000110: 592e c13d 527d 18be 6e9e 6c3d a99a 20be
00000120: dffe 0a3e c9ab 923d c0c2 a8bd e23f 09bb
00000130: 26e1 3f3e 9e1c 57be 3164 08be e480 71be
00000140: 0aba 7a3d ac76 26be e2d1 033e 0cba 10be
00000150: a3dc 5ebe 64cc 37be 7e1e 933d 5843 10be
00000160: bd33 c1bd e218 aa3d c164 fcbd 3bf5 8ebd
00000170: b167 f53c a886 423e e93f 8f3c 67dc 1fbe
00000180: 3106 763e 567f 513e db8a d5bd 0792 533d
00000190: f990 8b3d 8810 fdbd b8f6 2e3e ed43 ac3d
000001a0: 7619 4abe cde6 363d 0e88 343e 29f2 5f3c
000001b0: a1bd 693e 50ca 13bb 9b61 31bc 12ad f23c
000001c0: 05d6 c2bd 4c27 bebd a7eb 423d b4b7 85bd
000001d0: 7f49 cbbd db50 153d d3fc 5f3e df64 8bbd
000001e0: fdc7 c2bd 6df7 a9bd b80c 4e3e 1850 b93d
000001f0: 1274 393d d833 09bd fb65 0d3d f6fa 163e
00000200: 8bf5 78bd 7628 13be e0da 3dbe 74ef 0fbd
00000210: 9be7 fdbd 8591 e13d 0f57 20bc d9b8 cabc
00000220: 9c5a cc3d 1639 223d de87 5e3d daeb eebd
00000230: 965c 57bd 202d 0f3e a269 3b3e 59ac d53e
00000240: 0b04 273e d50d 50bb 4db0 e63d d9d2 653e
00000250: fb27 413d 25ed 93bc cda9 d4bd b97b 5e3c
00000260: 38c9 0e3e ff25 713e 211a 8bbd 2358 e53e
00000270: b45b 043e a652 04be 0882 37bd 11a9 433e
00000280: 5b05 8cbe 943c 17bd 7163 d83d b39f e23c
00000290: 327c 1a3d 06e1 5cbe 7e60 f23c 45f4 08be
000002a0: 69d0 653c 6006 d13d bf48 acbd dc8b 5cbd
000002b0: 1df8 f4bd 456f 333e 7a8c 6f3b 8d93 6c3e
000002c0: 7562 27be 09b5 183e fba0 2abd a7c2 3dbe
000002d0: 90c5 753d 64ae 12be 9e09 b7bd 0e96 893d
000002e0: 85d6 55bd 52a0 c1be f994 a0bd 08bb ad3d
000002f0: d25d 393d 1846 19bd 86e0 103e 33b9 b3be
00000300: 1a0c 993b de42 d93d b209 d23d 6290 163e
00000310: 9174 cbbc 189c bdbd 67af 25be a1ae e8bd
00000320: 929c eebd 3eda 61be 8e36 83bd c575 d73d
00000330: 549a 09be dfa7 89be 7599 403d 3b86 d1ba
00000340: 8fc2 84bd dafc 45be 4d81 2f3b cb66 1c3d
00000350: 55a7 c6bc aa7f 37bd 1939 80bd 0ede 853d
00000360: 74b1 8a3d f6fb ddbd d082 fe3d 9f23 8cbc
00000370: e112 c93c 609b c33d b911 1ebd e134 b6bb
00000380: 741a 2b3e 217b b7bd c398 27bd 1dd9 ca3c
00000390: c44e 11be 2971 15bd 7a7c 8bbe 4f74 44be
000003a0: d6e6 9ebe 18c9 c63b 7964 883d 05b6 1f3c
000003b0: ffb0 fe3c 314f e13d 8772 a5be 029f 4d3e
000003c0: 1b54 233e 1322 2dbe 1286 de3d 2951 773e
000003d0: 6be7 29be e3be b9bc 5042 8dbe ddec fcbd
000003e0: a850 fbbd 3c66 82be 0e41 0d3e 53a1 053d
000003f0: 0259 bf3b 3035 29be 444f 5d3d a434 613d
-0.100565895 0.22649673 -0.21774006 0.13616331 -0.088031836 -0.15315205 -0.0004952181 0.14803126
0.042404976 0.057227504 -0.18749805 -0.0062334267 0.17199211 -0.13600147 -0.13639592 0.05666662
0.00012544994 0.12971736 0.02718689 -0.09408162 -0.2625645 -0.022227203 0.28500155 0.14522377
-0.08200529 0.054098256 0.14497589 -0.026145173 -0.09119838 0.055706274 -0.2442662 0.25395203
-0.085010245 -0.12853338 -0.1793802 0.08308492 0.19574401 0.12334169 0.26631472 -0.015801976
0.14341868 -0.09974838 0.19579756 0.12485558 -0.20127065 0.03066266 -0.1688328 -0.16271092
-0.09791935 0.017334523 0.028021898 -0.08619764 -0.21901697 -0.10191756 0.012851157 -0.2743885
0.10864828 -0.073075406 0.038181666 -0.086591326 -0.1730118 0.06329365 0.028420022 0.20291413
0.052067216 -0.15454644 0.1494049 -0.09409844 0.09432668 -0.14891556 0.057768278 -0.15683998
0.13573788 0.07161672 -0.082402706 -0.0020942618 0.18738231 -0.2100701 -0.1331947 -0.23584324
0.061212577 -0.16256207 0.12873033 -0.14133471 -0.21763854 -0.17949063 0.0718355 -0.1408819
-0.094336964 0.08305527 -0.12323905 -0.06980368 0.02995667 0.1899668 0.01748653 -0.1561142
0.240258 0.20458731 -0.10426875 0.051652934 0.06814761 -0.12356669 0.17086303 0.08411393
-0.19736275 0.044653703 0.17630026 0.013668575 0.22826244 -0.0022551008 -0.010826494 0.029623542
-0.09513477 -0.09284839 0.047588017 -0.06529179 -0.09926128 0.036454063 0.21873789 -0.06806349
-0.09510801 -0.08299146 0.2012204 0.0904848 0.04527671 -0.033496708 0.034521084 0.14744172
-0.060781043 -0.14370903 -0.18540525 -0.03514047 -0.12397691 0.11014084 -0.009786381 -0.024746345
0.0997822 0.039605223 0.05432879 -0.11666079 -0.05257853 0.13982058 0.18302014 0.41733053
0.16310136 -0.0031746526 0.112640955 0.22443713 0.04715727 -0.018057415 -0.103839494 0.0135793025
0.13943946 0.2354965 -0.06792093 0.44793805 0.12925607 -0.12922153 -0.04480174 0.19107462
-0.27347836 -0.036923006 0.10565842 0.027664041 0.037716098 -0.21570215 0.029587027 -0.13374431
0.01402674 0.10206294 -0.08412313 -0.053844318 -0.11961386 0.17522915 0.0036552236 0.23103161
-0.16346152 0.1491281 -0.04165743 -0.18531285 0.060002863 -0.14324337 -0.08937381 0.06718074
-0.052206535 -0.37817627 -0.07840914 0.08482939 0.04525549 -0.037420362 0.14148149 -0.35102233
0.004670632 0.10608457 0.102557555 0.14703515 -0.024835857 -0.09258288 -0.16180192 -0.11361433
-0.11650957 -0.22055909 -0.0640689 0.1052051 -0.13437778 -0.26885888 0.047021348 -0.0015985438
-0.064824216 -0.19334736 0.002677995 0.03818397 -0.024249712 -0.044799484 -0.062608905 0.06536494
0.06772128 -0.10839073 0.12427294 -0.01710683 0.024545135 0.0955112 -0.03859112 -0.005560503
0.1670931 -0.08959032 -0.04091717 0.02476173 -0.14190203 -0.03648487 -0.27243406 -0.19184993
-0.3103549 0.0060664527 0.06659789 0.009747987 0.031090258 0.11001433 -0.3231394 0.20080188
0.15950052 -0.1690753 0.10865416 0.24152054 -0.16592185 -0.02267403 -0.27589655 -0.123498656
-0.12271243 -0.25468624 0.13794348 0.032624554 0.005839468 -0.16524196 0.05403067 0.054981843

network_body._body_endoder.seq_layers.2.bias f4 [256]
00000000: 8cd7 803c 2481 9b3c 491b ec3c 7d42 dc3c
00000010: 3350 093a fec0 0fbb 3f67 10bb dbab 82bc
00000020: 9a52 c63c 2e92 cfbb a6df d3bb facf 823c
00000030: fa6f dabc 7c20 78bc 961b b239 e64b 14bc
00000040: ecf6 213c 62b5 2b3c 80f4 23bc 6def 003d
00000050: 3871 4f3b 3998 c73b acb8 c53c 6512 223c
00000060: bb1d 673a 048a 5c3c a898 33bb 91cd 94bc
00000070: d21c ba3c 7b6a 723c b90d b6bc c203 fabb
00000080: a410 053c 9061 c33b d6ff e43b 18e2 643c
00000090: 2324 293c ce88 02bc be62 5f3a fd1e 8abc
000000a0: 4a66 3a3c 61a5 a9bc 9d4f a8bb eb93 12bc
000000b0: 5f08 0d3c 06b2 efbb 1fb7 9e3c 0cf9 6dbc
000000c0: a7f6 ed3b 56cc 493b 7a5e 8abc 93b1 283b
000000d0: 7b14 6fbb 3046 c9bb 4e87 313c ae28 783c
000000e0: 8379 5bbc 643b 65bc aed9 2dbc 3ed4 8e3b
000000f0: 6033 283c e7e6 84bc 60a4 99bc fb94 4fbb
00000100: 6cd1 dfbb 54f7 933b d97c 42bc 9039 10bc
00000110: fdaa 053d 54f3 863c 2756 843b 62ba 9b3c
00000120: 2358 a4bb 3ff8 bebc 9ee4 b0bc ac60 8abb
00000130: 9573 90bb 0b0b d6bb 48c5 823b 50cf 75bb
00000140: ec9e c53c ebc6 363c b3f6 eabb d0aa 5d3c
00000150: 721b dfbb 1401 0c3d 3a1f 9c3c 2a97 3ebb
00000160: 5b4e edbb 4967 42bc 9886 90bc 2df1 a9bc
00000170: 22b0 5e3c f2a1 f5b6 32c0 623b 605e 06bc
00000180: 31b5 043c 718a ccbb ed5f 80ba 1863 28bc
00000190: 7d19 f03b cf0b 233d 0f3c 8dbc 92e2 643c
000001a0: da98 803c 44e6 8e3c aead a2bc da2e 053c
000001b0: e52f d6bb 4cc6 113c 5ee9 cbbc 05e9 2e3c
000001c0: 7846 ba3c 81e2 38bc d4d4 7b3c 110d 59bc
000001d0: 18b9 b3bb c262 e53b 2450 27bc b76c 7a3a
000001e0: ba49 a6bb 6352 19bb 6449 6f3b 45f6 373c
000001f0: 20a4 18bc 4c3a 0f3c 27cb c5bb 3966 2a3c
00000200: 1e9d d73c 01ad 343b 547a 96bc 3fe7 6a3c
00000210: 3e67 d43b da78 5f3c b44a 373c 496b 4c3c
00000220: e7c1 94bc f223 b03b 3587 be3b 6709 54bb
00000230: 122c 26bc 0e9f 1fbc cf6b d93c cb7b c73c
00000240: af11 663a e7e0 cf3c 8796 583c 3fa8 5e3b
00000250: e2b9 5fbc ebf1 733c c1d6 143c e4a3 5a3c
00000260: 586e 523b 2d6d 7ebc 0422 023b 164e 45bc
00000270: 11d8 b53c 2ee3 25bb 1adc a6bb d7b9 56b8
00000280: 32a8 043c 300e c53c eac4 57bc 9e38 873c
00000290: aa90 79bc 0d33 973c 6723 993c 797b 3cbc
000002a0: a45f 86bc b15e 12bc f837 123c e0ec ef3c
000002b0: 8413 67bc b41a e1bb 5de3 f4bb 0c9e ba3c
000002c0: c7d8 8b3b 9b5a db3a a92a 643c 80a9 e63c
000002d0: 3431 8e3c a805 43bc 32a5 f9ba 01b0 92ba
000002e0: 3b38 afbc 6b37 bb3c bef8 aa3c f974 89bc
000002f0: 88c3 813c 0397 8cbb e58f 17bc 7309 95bb
00000300: e079 d13b cdb1 5dbb e2ce c2bb 576d debb
00000310: 99d4 48b9 b89f c6bc c69b 893c 4ae4 88ba
00000320: 491d af3c 80e5 62bc 2ba5 f63b 16cb e63c
00000330: 2fb9 7dbc 1ddd 8a3c 7955 1abc 0a86 debb
00000340: cb6d 42bc f771 f73b 0b5d 9fba 4157 ff3c
00000350: 0cd7 4bbb 511f ebbb 0d1e 033d 5fdc 6f3c
00000360: a9c1 8c3c 5f52 683c 1ca5 683c 08fa 14bc
00000370: bf81 0abc 03f7 be3c 92f0 8cbc 5bbc 3b3c
00000380: c3cf 963c 0102 a2bc 1a18 6d3c 7c68 fa3b
00000390: fab0 d9bb cab7 1b3b 85dc 0c3c d723 ddbb
000003a0: 18e0 a3bb 5651 5abc f8cc 68bc 386d 933b
000003b0: 4e67 e73c 88ef d8bc 2dda 5dbc 5362 303c
000003c0: 8625 6ebc 7af4 6dbc bb76 cebc ac08 013d
000003d0: d995 b23a 37fc 543c ba4d 973b 4256 3fbc
000003e0: 963c 553c 0df7 0f3d 02a8 13bc f849 e2ba
000003f0: 741e 8fbc 8fb0 bbbb 2f78 f63b 557d e3bb
0.01572778 0.018982477 0.028821604 0.026887173 0.0005238086 -0.00219351 -0.0022034196 -0.015951088
0.02420931 -0.0063345646 -0.00646587 0.015968312 -0.026664723 -0.015144464 0.0003397136 -0.009051299
0.009885531 0.010480257 -0.010007024 0.031478334 0.0031653177 0.0060911444 0.02413591 0.009892081
0.0008816381 0.01346064 -0.0027404223 -0.018164428 0.02271882 0.014795895 -0.02222334 -0.0076298425
0.008121643 0.005962558 0.006988506 0.013969921 0.010323557 -0.007967187 0.00085214886 -0.01686048
0.011376927 -0.020708742 -0.005136444 -0.008946399 0.008607953 -0.007314923 0.019374428 -0.014524709
0.0072620693 0.003079196 -0.016890753 0.0025740608 -0.0036480713 -0.0061424 0.010835482 0.015146418
-0.01339567 -0.013991211 -0.010610981 0.0043587973 0.010266155 -0.016223384 -0.018755138 -0.0031674493
-0.006830385 0.004515568 -0.011870586 -0.0088027865 0.03263377 0.01647345 0.0040385905 0.019009773
-0.0050153895 -0.023311732 -0.021593388 -0.00422295 -0.0044083097 -0.006532078 0.003990803 -0.00375076
0.024123631 0.011155824 -0.007170522 0.013529494 -0.0068086917 0.034180716 0.019057859 -0.00290818
-0.0072420067 -0.011865445 -0.017642304 -0.020744884 0.013591798 -7.320422e-06 0.003459942 -0.008201212
0.00809984 -0.0062420894 -0.0009794213 -0.010277532 0.007327257 0.039806183 -0.017240552 0.013970034
0.015697885 0.017443784 -0.019858208 0.008128846 -0.006536471 0.008897375 -0.024891552 0.010675673
0.02273868 -0.0112844715 0.015370566 -0.013247744 -0.0054847114 0.0070002982 -0.010211978 0.0009552943
-0.005074707 -0.0023395054 0.003651225 0.011228149 -0.009316474 0.008741926 -0.0060361805 0.010400348
0.026320037 0.0027568939 -0.018368877 0.01433736 0.006482034 0.013639653 0.011187244 0.012476751
-0.018158866 0.0053753788 0.005814458 -0.0032354237 -0.010142343 -0.009742511 0.026540665 0.024351021
0.0008776439 0.025375796 0.013219482 0.0033974794 -0.013655158 0.014889221 0.009084404 0.013344739
0.0032109227 -0.015528959 0.00198567 -0.012042543 0.022197755 -0.0025312412 -0.005092156 -5.1194653e-05
0.0080967415 0.024054617 -0.013169507 0.01650649 -0.0152322445 0.01845696 0.018693639 -0.011504048
-0.016403027 -0.008933709 0.008924477 0.029287755 -0.014103774 -0.0068696383 -0.007473393 0.02278044
0.004267785 0.0016735377 0.013926187 0.028156996 0.017357446 -0.011903204 -0.0019046424 -0.0011191369
-0.021389117 0.022853574 0.020870563 -0.01677941 0.015840307 -0.004290463 -0.009250616 -0.0045482456
0.0063927025 -0.0033827901 -0.0059450725 -0.0067879367 -0.00019152685 -0.024246082 0.016797911 -0.0010444012
0.021376269 -0.013848662 0.007527014 0.02817301 -0.015486046 0.016951138 -0.009419792 -0.006790881
-0.011866997 0.0075514275 -0.0012158466 0.031169536 -0.003110352 -0.007175364 0.03201108 0.014639943
0.017182188 0.014179795 0.014199521 -0.009092815 -0.008453785 0.023311144 -0.017204557 0.011458482
0.018409615 -0.019776346 0.014471078 0.00764185 -0.0066434117 0.002376067 0.008597498 -0.006748657
-0.0050010793 -0.013325056 -0.014209025 0.004499104 0.028247502 -0.026481405 -0.013540787 0.01076563
-0.0145353135 -0.01452362 -0.0252031 0.03150241 0.001362498 0.012999586 0.00461742 -0.01167828
0.013014933 0.035147715 -0.009012224 -0.0017264476 -0.017470576 -0.0057278345 0.007521651 -0.006942431

network_body._body_endoder.seq_layers.2.weight f4 [256, 256]
00000000: 033d 8b3d 7479 dcbd 0cb4 3f3c 27aa db3c
00000010: 5b8a 5dbd bc93 273d 4378 4e3d 152e ce3a
00000020: 8c89 733d a7a2 73bc 25d1 733d 81bc febc
00000030: 8769 4dbd 5e36 5e3d 78c5 393c fd42 23be
00000040: f61b d2bd 6c56 b7bc a943 adbd 9494 81bd
00000050: 5401 633e 657c d33c cae6 753c 7703 ba3b
00000060: 4a2e 68bd 7ffc 37bd 89ba 353d dbdc 83bc
00000070: 87ba bcbd 1c9b 27bc 4791 9a3d 3f05 36bd
00000080: 4e54 17bc 4f45 033d 4003 2dbc ecb9 263e
00000090: 1d62 c4bd c50b ea3c 679b cfbc 046a 6a3d
000000a0: 20f5 283c 4f86 c03c 97e5 633d af5a 79bd
000000b0: c210 8b3d 8f39 07bd 8718 50bd da6b c8bd
000000c0: 5425 3a3d 3f98 ba3b 56e9 d53d 267e 09bd
000000d0: 198d 9c3d be03 afbd eaf0 33bd 2d85 0dbc
000000e0: a25a 13be e03b e3bd b092 dfbb f4d4 123b
000000f0: dfaa 46bd fdf8 ab3d 829f 4b3d 78e9 2fbd
00000100: 4dc1 a43d 96e6 303b 53c0 89bd 14c8 21bb
00000110: 75a8 dc3d e535 74bd 3b0a cf3d f96e 24be
00000120: c5a1 e83d 0305 07bc 4f36 9c3c 6c16 243c
00000130: b8ef d43c 122e 82bd 5441 c9bd 7372 423b
00000140: 9c7e 973c 68c5 a83c 1ea3 e5bc 583f 86bd
00000150: c27e ccbc 4c0c 11be 2af7 20bd 740a 5ebd
00000160: deb0 533d cccd 8c3c 127e 2d3d 0ab4 793c
00000170: db5e 773d 2518 eabd 61cb 2f3d ff45 43bd
00000180: e08e 44bd c221 bebd 777f ceba d8ff 853d
00000190: cb79 be3d e24f 05be 1374 823d 5413 b5bd
000001a0: d369 36ba 5555 ad3d decc a6bd d4ad 0c3e
000001b0: 9773 afbc 8241 a9bb 81e0 38bd 9145 ab3d
000001c0: db2a bd3d c2f2 78bd 0bf3 a6bc 53fa c33b
000001d0: fd3b ad3d 98e1 c73b fef2 cfbc 1ac1 37bb
000001e0: 327b fbbc 6720 3abd 190a 513d d1b6 0f3d
000001f0: d311 f63d 4e94 623d ef82 733d b747 0ebd
00000200: 69c3 b63d 83f2 a0bd 7319 7ebd 68f3 f5bd
00000210: 1d22 8c3c 9d7d 8dbc 443e 0e3d 3f2f b9bd
00000220: cdbf e1bd f72a fc3d a27a 903c b69b 84bd
00000230: f10a 09bc 6e2e ecbc c7d7 1fbd 190c d7bc
00000240: 4629 dcbd 3aa6 19be beba 0abe 01e1 503d
00000250: 153c f4bc 9fea 5cbd f069 d5bd 5eab 68bd
00000260: c0e6 95bd 7218 2bbb be30 003d 5559 fcba
00000270: a09b c0bd 4c4d 2ebe e356 80bd c44a 8fbd
00000280: 4ccb 503c 1c0e a83c 81ac 213e a724 ca3d
00000290: 028a 66bd 5910 b53c 3afa 0d3b 473e 9b3d
000002a0: aa50 d1bb 8b98 5ebd 89af 3cbd d3ba 943d
000002b0: bf87 99bd 976a 1cbd df30 0e3d 4fd2 3b3d
000002c0: c19d b6bc 163e b4ba d4a7 963d f377 16bc
000002d0: 2ee2 133b 4416 043c 8944 933d 7f14 373c
000002e0: 6369 70bd 33d9 3a3d 622b 473d 5207 68bd
000002f0: 7722 963c 061c 3e3c 5722 a53d 0b86 003c
00000300: 7cbe 85bd 8a71 003e 932d bebc 324c 66bc
00000310: ff86 ea3d f494 45bd 7c66 0f3d c057 bbbd
00000320: 4a28 fe3c e925 e5bd c019 c6bd a1d6 033d
00000330: 74e6 d73c 8ef3 e4bd eeee 27bd d250 7cbd
00000340: 4d93 873d 0c5a db3c d291 cabd 17cd 05be
00000350: d718 073e f7ce 18bd 398c 923b 8037 60bc
00000360: 0e67 a93d 320a 1d3e 7aee 8dbd d5c7 db3d
00000370: a8c3 bf3d 89e1 c4bb b2d1 ebbc 6041 573d
00000380: a08b 2abd cf22 8a3d ae51 a8bc 53af c13d
00000390: be2b 94bd d56c 053d e3b5 db3c 6806 dcba
000003a0: 0567 ed3c a4e6 c33d dfe4 173d 0443 39be
000003b0: 9177 2d3e 67e0 e33d f4c2 873d ca3a 6cbd
000003c0: 9a72 4cbc 5301 f63b 7e91 abbd 253e 08bd
000003d0: 622d da3d f1f1 123d e810 40bb 05e7 803d
000003e0: 51fa a8bb 6e0c e5bc fb98 17bd 33b3 993d
000003f0: 93ef cfbb 194c a43d 4ce2 dbbc 0569 913d
0.067987464 -0.10765353 0.011700641 0.026814533 -0.054087024 0.040912375 0.05040766 0.0015730286
0.059457347 -0.014870322 0.059525628 -0.031095745 -0.050149467 0.054251067 0.011338584 -0.15943523
-0.102592394 -0.022380076 -0.08460171 -0.06327167 0.22168475 0.025816152 0.015008638 0.0056766826
-0.05668477 -0.044918533 0.044367347 -0.016096523 -0.09215265 -0.010229852 0.07547241 -0.044438597
-0.009236408 0.03204852 -0.010559857 0.16281861 -0.09589026 0.028570065 -0.025342656 0.05723001
0.010312349 0.023501543 0.055638876 -0.0608775 0.06790306 -0.033013877 -0.05080464 -0.09786196
0.045445755 0.0056944187 0.10444896 -0.03356757 0.076441 -0.08545636 -0.043930925 -0.008637709
-0.14390042 -0.110954046 -0.0068229064 0.0022404762 -0.0485028 0.083971 0.049712665 -0.042947263
0.08044682 0.0026992909 -0.06726136 -0.0024685906 0.10774318 -0.05962171 0.10109373 -0.16057958
0.1135898 -0.008240941 0.019068865 0.010015111 0.025993213 -0.063564435 -0.098269135 0.0029670268
0.01849299 0.020601943 -0.028031882 -0.065550506 -0.024962787 -0.14164847 -0.039298214 -0.054209188
0.051682346 0.017187975 0.04235656 0.015240679 0.060393196 -0.114303865 0.042918567 -0.047674175
-0.04798782 -0.092837825 -0.001575454 0.06542939 0.09300574 -0.13018754 0.06369796 -0.08841577
-0.0006958518 0.084635414 -0.08144544 0.13738185 -0.021417422 -0.00516528 -0.04513598 0.08362878
0.0923669 -0.060778387 -0.020379564 0.0059807687 0.084587075 0.006099891 -0.025384422 -0.0028038681
-0.030698393 -0.045441058 0.05103502 0.035086457 0.120151184 0.055317216 0.05945104 -0.03473636
0.0892399 -0.078587554 -0.06203599 -0.12009317 0.01710611 -0.017271811 0.03472735 -0.090422146
-0.11022911 0.123128824 0.0176366 -0.06475012 -0.008364425 -0.028830733 -0.03902414 -0.026250886
-0.1075006 -0.15004817 -0.13547799 0.05099583 -0.029813806 -0.05393469 -0.104205966 -0.056804053
-0.07319403 -0.00261071 0.031296484 -0.0019252697 -0.09404683 -0.17021674 -0.06266572 -0.06996682
0.012743782 0.02051454 0.15788461 0.09870272 -0.05628396 0.022102522 0.002166404 0.07580238
-0.0063877897 -0.054344695 -0.04606584 0.072621964 -0.07496595 -0.03818759 0.034714576 0.045854863
-0.02229202 -0.0013751413 0.073562294 -0.009183872 0.0022565234 0.008061949 0.071908064 0.01117432
-0.058694255 0.045617294 0.048625357 -0.056647606 0.018326981 0.011603361 0.080631904 0.007844458
-0.06530473 0.12543312 -0.02321509 -0.014056252 0.1145153 -0.048237756 0.035009846 -0.09147596
0.03102507 -0.111888714 -0.0967288 0.032187108 0.026355006 -0.11179267 -0.040999345 -0.061600514
0.06619892 0.026776336 -0.09891094 -0.13066517 0.1319307 -0.037306752 0.0044722822 -0.013685107
0.08271609 0.1533592 -0.069302514 0.10731474 0.0936349 -0.006008331 -0.028786514 0.05255258
-0.041637063 0.067449205 -0.02054676 0.094572686 -0.07234906 0.032574493 0.026820129 -0.0016786577
0.028979788 0.095654756 0.037083503 -0.1809197 0.16940142 0.11126786 0.06628981 -0.057673253
-0.012478495 0.007507482 -0.0837736 -0.03326239 0.10653187 0.035875265 -0.0029306952 0.062940635
-0.005156793 -0.027960028 -0.037011128 0.07504883 -0.006345698 0.08022327 -0.026841305 0.07100109
