GameBreaker/NNModels/lv1_gb-icm.onnx (onnx, 316179 bytes, 9 tensors)

action_model._discrete_distribution.branches.0.bias f4 [2]
-0.0020888564 0.0020888555
00000000: 32e5 08bb 2ee5 083b

action_model._discrete_distribution.branches.0.weight f4 [2, 256]
0.005252769 0.015224978 0.008468127 -0.0014854858 0.009209913 -0.0005877545 0.017725043 -0.017357638
0.027680308 0.011625427 -0.028205164 0.006128955 0.001426876 -0.010522939 -9.483976e-05 0.036666438
0.028282056 -0.0007888448 0.012688415 0.04646463 -0.005792381 0.0070212213 -0.0034804095 0.005280363
-0.004973723 0.010690128 -0.013802076 -0.021290492 0.005155862 -0.002429229 -0.017104166 0.0013729283
0.012642264 0.007557141 0.008186341 0.0070535573 -0.008105066 -0.030327924 -0.053805534 0.007463981
-0.026077714 -4.4711975e-05 0.0032726584 -0.0007806059 0.005540094 0.014385693 -0.039200004 0.002281601
0.010056957 -0.0065541905 -0.05106775 -0.022160478 -0.045421954 -0.014131829 0.004166589 0.008081786
0.014288817 0.012715845 0.004631922 -0.00211884 -0.018213643 -0.022647908 -0.022710478 -0.004082538
0.005407541 0.0072065303 0.014020794 0.004211321 -0.009376083 0.012418829 0.009179846 -0.0206977
0.015592626 0.014241365 0.01806399 0.003099005 0.030334694 0.00014044446 0.024466468 0.012318269
0.0104987435 -0.007514881 -0.016618017 0.004271453 0.020117074 0.0019752248 0.019251365 -0.014045691
0.0017825732 0.026721606 0.010498493 0.028098814 0.00039242135 -0.0023358571 -0.006016083 0.007070822
0.008174449 0.0069247386 0.0072829095 0.003411011 0.020707972 0.03665144 0.037855532 0.023938136
0.0033224889 -0.034060646 -0.002176098 0.017816931 -0.04329746 0.009468152 0.013519442 0.011906627
0.012163819 0.00025552872 -0.0074961768 -0.02517417 0.013456026 -0.0037740823 0.019974427 0.015879853
-0.018108467 -0.0041031456 -0.01474012 -0.012503736 -0.017564464 0.0060892557 0.008218963 -0.034063254
0.0072872206 0.010854826 0.007200235 0.01755564 -0.0041391146 -0.038610198 0.0053902455 -0.01026669
0.02029667 0.0070788623 0.013852051 -0.01890939 0.0018478116 0.020926045 -0.02016271 0.0022198998
0.0029906689 0.029707473 0.03229551 -0.013338977 -0.057293486 0.002617533 0.024778135 0.0014541724
0.031354982 0.010701636 0.009108101 0.0007308486 -0.0108777685 0.015357708 0.010935065 0.011153722
0.030653927 0.034610856 0.0055306493 0.054612476 0.011784326 0.027295379 -0.006911514 0.010160221
-0.040274367 0.024951352 -0.012026516 -0.032297317 -0.003530179 0.029595332 0.0019081963 -0.006792901
-0.05764987 -0.0041474695 0.016748408 -0.034359206 0.031138046 -0.0013139627 -0.03046171 0.03206244
-0.007944295 -0.030996032 0.011593622 -0.0050819493 0.0036133952 0.024893686 0.021030879 -0.00063180877
0.013455008 0.0007204999 0.005068755 -0.020123681 0.012502196 0.0103993835 -0.01577374 -0.00334053
0.022371156 0.01933423 -0.045860093 0.03628444 -0.008268541 0.038599096 -0.0132966945 0.001994401
-0.038076118 0.0021316598 0.012725435 -0.005964562 -0.007983279 -0.012217842 -0.0068854056 0.01756688
0.020616557 0.0013139613 -0.009513774 0.019286746 0.017197967 0.0069766096 0.00025725923 -0.0035974174
0.0047170403 0.0056792987 0.008812071 0.020592265 -0.027093237 0.01067528 -0.03719566 0.0030100527
0.01669499 -0.00061070826 -0.0062969695 0.023072338 0.028930314 -0.037144624 0.010808471 0.0043381276
0.012060927 -0.0074527846 -0.0037858845 -0.01444615 0.041525852 -0.0003840035 0.0071520237 -0.021148723
0.0006870438 0.017965116 0.003000524 -0.009163025 0.002206125 -0.00017634046 -0.013315867 0.004767653
00000000: 6c1f ac3b 3072 793c e6bd 0a3c a2b4 c2ba
00000010: 2de5 163c 8913 1aba 1c34 913c 9b31 8ebc
00000020: d0c1 e23c 9378 3e3c 840e e7bc 67d5 c83b
00000030: 0406 bb3a 6868 2cbc b5e4 c6b8 8c2f 163d
00000040: c5af e73c 7aca 4eba 12e3 4f3c b251 3e3d
00000050: 03ce bdbb 4612 e63b 9517 64bb e506 ad3b
00000060: 9dfa a2bb a625 2f3c 1a22 62bc 6669 aebc
00000070: 81f2 a83b b333 1fbb 091e 8cbc d4f3 b33a
00000080: 8021 4f3c e5a1 f73b 0120 063c 8721 e73b
00000090: 1ccb 04bc 4472 f8bc 3163 5cbd 6994 f43b
000000a0: eea0 d5bc 1e89 3bb8 197a 563b 93a1 4cba
000000b0: ad89 b53b f8b1 6b3c 2f90 20bd ea86 153b
000000c0: efc5 243c 89c4 d6bb 6b2c 51bd e489 b5bc
000000d0: 5f0c 3abd 3089 67bc e287 883b 7869 043c
000000e0: a41b 6a3c 1f56 503c 61c7 973b 3ddc 0abb
000000f0: c734 95bc 1b88 b9bc 530b babc d0c6 85bb
00000100: be31 b13b c224 ec3b 79b7 653c 1fff 893b
00000110: 249e 19bc 5878 4b3c 1167 163c 398e a9bc
00000120: 3778 7f3c 9d54 693c effa 933c ad18 4b3b
00000130: 7780 f83c 4644 1339 e76d c83c 91d2 493c
00000140: ec02 2c3c 643f f6bb 8222 88bc 8bf7 8b3b
00000150: 90cc a43c c672 013b 0ab5 9d3c e61f 66bc
00000160: 3ba5 e93a 45e7 da3c df01 2c3c 7c2f e63c
00000170: e7bd cd39 2e15 19bb 9022 c5bb 5bb2 e73b
00000180: 20ee 053c ebe8 e23b 79a5 ee3b 458b 5f3b
00000190: c4a3 a93c d21f 163d 670e 1b3d e919 c43c
000001a0: 1dbe 593b 2d83 0bbd de9c 0ebb d0f4 913c
000001b0: ad58 31bd 4f20 1b3c a680 5d3c 0314 433c
000001c0: c14a 473c 7cf8 8539 7da2 f5bb 103a cebc
000001d0: aa76 5c3c 9856 77bb 69a1 a33c 7716 823c
000001e0: 3558 94bc ae73 86bb 8b80 71bc 78dc 4cbc
000001f0: 5ae3 8fbc 6188 c73b d4a8 063c e985 0bbd
00000200: a3c9 ee3b 71d8 313c f3ef eb3b d8d0 8f3c
00000210: 69a1 87bb ba25 1ebd a8a0 b03b 9e35 28bc
00000220: 3445 a63c cdf5 e73b b7f3 623c dde7 9abc
00000230: 4532 f23a 196d ab3c 452c a5bc bd7b 113b
00000240: 19ff 433b 165d f33c 4c48 043d b98b 5abc
00000250: 93ac 6abd eb8a 2b3b 84fb ca3c ee99 be3a
00000260: 156e 003d ea55 2f3c 253a 153c 6b96 3f3a
00000270: ab38 32bc e59e 7b3c fd28 333c 1abe 363c
00000280: f21d fb3c 1dc4 0d3d 733a b53b 55b1 5f3d
00000290: 0c13 413c 8f9a df3c fb79 e2bb 0e77 263c
000002a0: bcf6 24bd c766 cc3c dd0a 45bc 314a 04bd
000002b0: 935a 67bb e971 f23c 711c fa3a fc96 debb
000002c0: 4522 6cbd 7fe7 87bb f533 893c 3dbc 0cbd
000002d0: 3715 ff3c 4639 acba d68a f9bc e853 033d
000002e0: ca28 02bc 64eb fdbc 2df3 3d3c 7b86 a6bb
000002f0: b6ce 6c3b d8ed cb3c f348 ac3c f89f 25ba
00000300: 6572 5c3c eedf 3c3a cc17 a63b 6bda a4bc
00000310: 03d6 4c3c 2d62 2a3c ee37 81bc cbec 5abb
00000320: b743 b73c d262 9e3c cbd7 3bbd fe9e 143d
00000330: c678 07bc 161a 1e3d 61da 59bc 7fb4 023b
00000340: b4f5 1bbd 51b3 0b3b 587e 503c 5f72 c3bb
00000350: 4dcc 02bc 582d 48bc f89e e1bb 6be8 8f3c
00000360: 0ee4 a83c 3a39 ac3a a9df 1bbc 3dff 9d3c
00000370: c0e2 8c3c 0b9c e43b c0e0 8639 a6c2 6bbb
00000380: 6791 9a3b 6919 ba3b 8160 103c 1cb1 a83c
00000390: a3f2 ddbc 5fe7 2e3c 7a5a 18bd 4e44 453b
000003a0: efc3 883c f017 20ba cf56 cebb 3302 bd3c
000003b0: 44ff ec3c f624 18bd 0316 313c da26 8e3b
000003c0: 329b 453c 7d36 f4bb 9a1c 78bb 8baf 6cbc
000003d0: 0317 2a3d 1454 c9b9 865b ea3b 1640 adbc
000003e0: bb1a 343a 942b 933c 70a4 443b 8320 16bc
000003f0: a394 103b 08e8 38b9 cb2a 5abc f939 9c3b

action_model._discrete_distribution.branches.1.bias f4 [3]
-0.015523318 0.01574074 -0.0044895173
00000000: 8455 7ebc b9f2 803c cd1c 93bb

action_model._discrete_distribution.branches.1.weight f4 [3, 256]
-0.009479721 -0.0018363418 0.037927426 0.0035719315 -0.017460141 -0.04035765 -0.024888298 0.013667316
0.02621982 0.015419365 -0.0068177856 -0.0063736825 0.014996324 -0.0059884493 0.0048597157 -0.036420055
0.02193141 -0.0031506824 -0.020087617 -0.008065292 -0.013096061 -0.013250595 0.0034821914 0.0097843595
0.0127707515 0.0021439984 0.017741682 -0.0126926275 0.0037102704 -0.012952245 -0.0020319733 0.0020854147
0.02010256 0.030506011 -0.025128864 -0.004682632 -0.0040046116 0.029040195 0.009339532 -0.002268882
0.028038425 0.00159788 0.015777122 0.023371626 0.018720308 -0.02676461 0.0005014135 0.0019695172
0.019782789 0.0060976967 -0.007680019 -0.015271755 0.006464056 0.0306816 0.01907334 -0.025011139
0.01459709 0.018905647 0.0023849152 -0.02276762 0.023315161 -0.0043986547 0.045822587 0.0019295393
0.01851855 0.025267806 0.021692753 -0.0028408202 -0.0068031857 0.0110933725 -0.010912468 0.0027904115
-0.0015551527 -0.012046532 -0.022288047 0.027572315 -0.021412324 -0.024939861 -0.018902663 -0.017311532
0.015339687 -0.015899738 -0.03004681 0.015730796 -0.032603234 -0.017687365 -0.0034631556 -0.01958872
0.015434671 0.016879164 -0.019046137 -0.054148644 0.0046436335 0.03338106 0.025276028 0.011909039
-0.015721368 -0.021955209 -0.0033686333 0.012083904 0.011145439 -0.017695341 -0.0071197045 0.020390945
0.022567812 -0.025261879 0.006306841 -0.006655734 0.0045845197 -0.036904413 0.020839049 0.016946005
-0.009771693 0.013756372 0.013010673 0.0044883993 -0.015078711 0.024506887 -0.01376953 -0.004783965
0.014824615 -0.02412176 0.011112582 0.007374702 0.017265486 -0.013311477 0.016518932 0.0030881064
0.0017168539 0.013181552 -0.016089411 -0.024014326 0.03314354 0.017839907 -0.011290737 0.01709922
-0.019702096 -0.010741864 -0.026731366 0.017071262 -0.0044815014 -0.04115852 0.018142011 0.010216266
-0.0026196975 0.009009488 0.0005232686 -0.01176003 0.019850764 -0.013340705 -0.0022532572 -0.019187827
-0.0048306123 0.0049033975 -0.04405309 0.022011407 0.016156888 0.012631219 -0.009605734 0.022336766
-0.007616593 -9.875538e-05 0.01154228 0.001089966 -0.021324117 0.0047422578 0.018751264 0.027838366
0.020053765 0.018262265 0.016802605 0.011473847 0.016670166 -0.024254277 0.0065858886 0.014547734
0.016685149 0.010125033 -0.009093531 0.00020419901 -0.014110877 0.025111714 0.041138 0.0006380401
0.00079478614 -0.00819799 -0.0056963037 -0.034320723 -0.0008495153 -0.035709403 0.025822671 -0.012779803
0.017591394 0.005295573 -0.032091033 -0.011507631 -0.015537352 -0.019197628 -0.012091009 0.029852407
-0.016105449 -0.05911273 0.009691137 -0.017484814 -0.0018681664 -0.020776499 0.008378224 0.009883207
0.005075239 -0.004419312 -0.015012753 -0.015969941 0.025142776 0.0063298373 0.00030823812 0.0015032034
0.021707375 0.0052911933 0.03896546 -0.0098557025 -0.025826164 -0.004117573 -0.011605515 0.008712885
-0.014408691 0.028438844 -0.00320471 -0.010270275 0.012539521 -0.010404968 0.0020312904 -0.003643763
-0.017395891 0.02024638 0.0223314 -0.0055271066 -0.008248226 -0.00517012 0.026299812 0.027360715
0.015838832 0.017259113 -0.021612 -0.0034230873 -0.013716409 -0.004487475 0.03743897 0.008869958
-0.02272725 0.021729607 -0.012461756 0.043503333 0.015013071 -0.005838859 -0.014274494 -0.014733059
00000000: d550 1bbc 68b1 f0ba ca59 1b3d 1117 6a3b
00000010: 9208 8fbc 104e 25bd 8be2 cbbc e1ec 5f3c
00000020: f3ca d63c 81a1 7c3c bb67 dfbb 53da d0bb
00000030: 24b3 753c c13a c4bb 403e 9f3b 322d 15bd
00000040: 80a9 b33c ae7b 4ebb c98e a4bc 4924 04bc
00000050: dc90 56bc 0619 59bc 7a35 643b 944e 203c
00000060: 6a3c 513c 5382 0c3b 0157 913c bdf4 4fbc
00000070: 0228 733b a735 54bc db2a 05bb 74ab 083b
00000080: 20ae a43c bee7 f93c 0cdb cdbc c470 99bb
00000090: 1e39 83bb b4e5 ed3c d604 193c 86b1 14bb
000000a0: d7b0 e53c f56f d13a 063f 813c da75 bf3c
000000b0: 555b 993c 7541 dbbc 4a71 033a 0413 013b
000000c0: 840f a23c 30cf c73b aba8 fbbb 6236 7abc
000000d0: 6fd0 d33b fb57 fb3c b13f 9c3c 29e4 ccbc
000000e0: a228 6f3c 04e0 9a3c 3d4c 1c3b 2983 babc
000000f0: 70ff be3c 9722 90bb 77b0 3b3d 98e8 fc3a
00000100: 37b4 973c 6efe ce3c 00b5 b13c 0e2d 3abb
00000110: 42ed debb fac0 353c 35ca 32bc 56df 363b
00000120: 44d6 cbba d15e 45bc 6c95 b6bc 56df e13c
00000130: e668 afbc ae4e ccbc c2d9 9abc ead0 8dbc
00000140: 4f53 7b3c 2b40 82bc ba24 f6bc dfdd 803c
00000150: f88a 05bd 18e5 90bc 1cf6 62bb 8678 a0bc
00000160: b4e1 7c3c 2c46 8a3c a506 9cbc f8ca 5dbd
00000170: 9f29 983b 94ba 083d ac0f cf3c 211e 433c
00000180: 19ca 80bc 69db b3bc 4ac4 5cbb 91fb 453c
00000190: 5c9b 363c d2f5 90bc 694c e9bb e90a a73c
000001a0: 22e0 b83c 00f2 cebc 9ea9 ce3b 5818 dabb
000001b0: bd39 963b 1529 17bd a7b6 aa3c 59d2 8a3c
000001c0: 7319 20bc 6862 613c b82a 553c 6c13 933b
000001d0: b30c 77bc abc2 c83c 9899 61bc cfc2 9cbb
000001e0: f1e2 723c ff9a c5bc 8c11 363c 7ca7 f13b
000001f0: 5970 8d3c 6218 5abc b652 873c d461 4a3b
00000200: 0f08 e13a 70f7 573c f1cd 83bc b1b9 c4bc
00000210: 85c1 073d ff24 923c c9fc 38bc aa13 8c3c
00000220: 4a66 a1bc a5fe 2fbc bdfb dabc 08d9 8b3c
00000230: 8fd9 92bb d695 28bd 8e9e 943c 2062 273c
00000240: 3baf 2bbb 889c 133c f62b 093a 24ad 40bc
00000250: 129e a23c f992 5abc 62ab 13bb ca2f 9dbc
00000260: 1d4a 9ebb aeac a03b 0371 34bd 4451 b43c
00000270: 735b 843c 2cf3 4e3c 5e61 1dbc 98fb b63c
00000280: 9d94 f9bb e41a cfb8 d51b 3d3c 31dd 8e3a
00000290: eaaf aebc f164 9b3b 409c 993c 490d e43c
000002a0: cb47 a43c bf9a 953c 9ea5 893c cdfc 3b3c
000002b0: df8f 883c e8b0 c6bc 70ce d73b 9e59 6e3c
000002c0: 4baf 883c 77e3 253c 09fd 14bc 411e 5639
000002d0: 4f31 67bc 15b7 cd3c 5280 283d 2542 273a
000002e0: 3259 503a dd50 06bc 0fa8 babb e393 0cbd
000002f0: 02b2 5eba 0644 12bd 118a d33c 6162 51bc
00000300: d41b 903c 7c86 ad3b e371 03bd 818a 3cbc
00000310: 6190 7ebc 5844 9dbc 5e19 46bc 098d f43c
00000320: 93ef 83bc 3120 72bd 93c7 1e3c 503c 8fbc
00000330: 43dd f4ba 7a33 aabc d244 093c 2ded 213c
00000340: 314e a63b e0cf 90bb 0df8 75bc 65d3 82bc
00000350: 39f8 cd3c 866a cf3b 059b a139 2307 c53a
00000360: aad3 b13c bf61 ad3b 3f9a 1f3d d079 21bc
00000370: 6491 d3bc b5ec 86bb 0f25 3ebc 7dc0 0e3c
00000380: 6e12 6cbc 94f8 e83c 1d06 52bb a844 28bc
00000390: 9072 4d3c 9979 2abc 661f 053b 33cc 6ebb
000003a0: d481 8ebc bcdb a53c 57f0 b63c bb1c b5bb
000003b0: 9123 07bc 1c6a a9bb b472 d73c 9423 e03c
000003c0: 70c0 813c fc62 8d3c a60b b1bc e055 60bb
000003d0: caba 60bc ab0b 93bb 9b59 193d 4d53 113c
000003e0: 7f2e babc 4a02 b23c 652c 4cbc 8d30 323d
000003f0: 62f9 753c e653 bfbb 91df 69bc ee62 71bc

discrete_action_output_shape f4 [1, 2]
2.0 3.0
00000000: 0000 0040 0000 4040

network_body._body_endoder.seq_layers.0.bias f4 [256]
-0.0062799496 0.020765139 0.008590549 -0.0026971893 -0.030813191 -0.015262808 0.022359561 0.031137656
-0.01785749 -0.015732767 0.0088420445 0.027681516 0.0054110517 0.00079590786 -0.019640286 0.046886586
-0.009077509 0.011762644 0.021971349 -0.016237864 -0.01080731 -0.0029091167 -0.028418751 0.052221097
0.051867146 -0.003255609 0.030501397 0.02814778 -0.028014138 -0.00455209 0.012533796 0.024065316
0.02938722 0.018235728 0.04134915 -0.025207903 0.048209492 -0.004680974 0.06231179 -0.01608569
-0.05257777 -0.0066544604 0.005977334 -0.012763652 0.023986602 -0.016022325 0.020641314 0.0113552315
0.018757975 0.005865117 0.017607108 0.049301043 -0.008535321 -0.00014332432 0.017788453 -0.01562163
-0.0023781569 -0.013148886 -0.034743775 -0.016294528 0.020229489 0.0060259844 0.0030656687 0.009172902
0.008232036 -0.014594746 0.05975376 -0.024035625 -0.021044303 -0.0015633145 0.026993528 -0.007817202
-0.011021481 0.01873791 0.017576687 0.014010879 0.0041134683 -0.01654397 -0.018133966 0.015346734
0.05715681 0.02492174 0.03263937 -0.013612585 0.022640806 0.045712743 0.008363002 -0.0023972483
0.04797896 0.060389724 0.009174583 0.06145885 -0.012427095 -0.015009013 -0.010675658 -0.012190109
0.034639206 -0.014309053 -0.011361643 0.023360776 0.051375337 -0.042618155 -0.03182911 -0.0031198545
0.020054223 0.016882347 0.027854437 -0.008593722 0.019039664 0.022299932 -0.002640421 0.035675377
0.043460812 0.05403592 0.031657152 0.042562205 0.03833545 -0.0214284 0.0056344434 -0.0032229132
-0.0061683874 0.02133589 -0.009950433 -0.007836206 0.007199547 -0.019789323 -0.020003846 -0.029047921
0.011341632 0.0016109757 0.0024806275 -0.018141504 -0.033830952 -0.004055929 0.022028364 0.012726196
-0.0455319 -0.0150797125 0.030451942 -0.027756996 -0.01881587 -0.021407671 0.0007680936 0.027851855
-0.004699038 0.011467177 0.014199352 0.004289131 -0.0009273503 0.012768358 -0.0055287387 -0.011843612
-0.024667604 -0.014521393 0.006667158 -0.017707285 -0.022000074 -0.0291487 -0.005178358 0.03355033
-0.011121484 -0.0014395021 0.028279532 -0.029611072 0.02686265 0.027640127 -0.010362646 -0.006881037
0.00013132361 0.03476928 0.0031795471 0.020358905 0.012157254 -0.005462348 -0.00015364045 -0.021655023
0.022283617 0.043846563 -0.0129824085 -0.00328162 0.011929006 -0.010789448 0.030681383 -0.027348459
-0.014414702 -0.030217893 -0.0030420683 0.024999611 -0.015128209 0.018377522 -0.0023550836 0.007197845
-0.009543579 -0.011321866 -0.018272381 0.0077627823 0.02349953 0.02408154 -0.016986758 -0.009545802
-0.013432011 0.027479082 0.019826772 0.0010386282 0.034242895 0.02753441 -0.02001997 0.006731666
-0.0027284836 -0.03458103 0.02051544 -0.012287174 0.000760602 0.04854711 -0.024192344 -0.0023780474
0.04445728 -0.06591852 0.044967894 -0.018658279 0.006270757 0.011123211 0.030034292 0.056835454
-0.00926779 0.01442563 -0.00044444733 0.007378714 0.025370432 -0.016218536 -0.008189295 -0.01669635
0.011699505 0.04010956 -0.0135765495 0.008929555 0.030143898 0.003734212 0.027461158 0.006662566
0.057108935 0.0101567805 0.010201311 0.0006783502 -0.0015716078 0.017119676 0.061221816 0.032800347
-0.019040305 -0.015852097 -0.002208358 -0.022309506 0.05998958 0.013533853 0.0106210355 0.021177921
00000000: 09c8 cdbb a71b aa3c 60bf 0c3c 54c3 30bb
00000010: f26b fcbc db10 7abc 662b b73c 6614 ff3c
00000020: df49 92bc 01e2 80bc 39de 103c 59c4 e23c
00000030: 314f b13b 79a4 503a aae4 a0bc 260c 403d
00000040: d5b9 14bc 1bb8 403c 42fd b33c 4505 85bc
00000050: 2511 31bc e1a6 3ebb 71ce e8bc cae5 553d
00000060: a572 543d 0e5c 55bb 11de f93c 2c96 e63c
00000070: e87d e5bc b329 95bb 8d5a 4d3c a024 c53c
00000080: 78bd f03c 1863 953c ba5d 293d ce80 cebc
00000090: 5177 453d db62 99bb a63a 7f3d 23c6 83bc
000000a0: ca5b 57bd a90d dabb 83dd c33b a31e 51bc
000000b0: 8d7f c43c 4041 83bc f917 a93c 4b0b 3a3c
000000c0: 53aa 993c 2b30 c03b c83c 903c e4ef 493d
000000d0: bbd7 0bbc 5449 16b9 17b9 913c ddf1 7fbc
000000e0: dada 1bbb 6d6e 57bc 7d4f 0ebd 1a7c 85bc
000000f0: 50b8 a53c 9f75 c53b 63e9 483b f149 163c
00000100: a9df 063c cd1e 6fbc 5cc0 743d 5ce6 c4bc
00000110: 1a65 acbc 21e8 ccba 8821 dd3c b913 00bc
00000120: 7193 34bc 3f80 993c fcfc 8f3c e38d 653c
00000130: 46ca 863b 3887 87bc af8d 94bc de70 7b3c
00000140: 421d 6a3d ad28 cc3c dcb0 053d 5207 5fbc
00000150: 3679 b93c 493d 3b3d f904 093c 271b 1dbb
00000160: 9685 443d 375b 773d fd50 163c 46bc 7b3d
00000170: 049b 4bbc 5de8 75bc f4e8 2ebc 06b9 47bc
00000180: d7e1 0d3d 8570 6abc 2f26 3abc 195f bf3c
00000190: f26e 523d 6090 2ebd 3e5f 02bd 7976 4cbb
000001a0: c148 a43c d94c 8a3c fd2e e43c afcc 0cbc
000001b0: 12f9 9b3c 59ae b63c ea0a 2dbb 5820 123d
000001c0: f703 323d c554 5d3d eeaa 013d b555 2e3d
000001d0: a205 1d3d 9d8a afbc 23a1 b83b 8337 53bb
000001e0: 2f20 cabb 9bc8 ae3c 2407 23bc 6e63 00bc
000001f0: 2dea eb3b 381d a2bc 1bdf a3bc e8f5 edbc
00000200: 41d2 393c 6027 d33a 0692 223b 7e9d 94bc
00000210: 5392 0abd 99e7 84bb d474 b43c 8981 503c
00000220: a87f 3abd e610 77bc 5a76 f93c a462 e3bc
00000230: bd23 9abc 245f afbc e459 493a 9329 e43c
00000240: 63fa 99bb d4e0 3b3c 66a4 683c d78b 8c3b
00000250: 6d19 73ba 6032 513c 6c2a b5bb b60b 42bc
00000260: b713 cabc 23eb 6dbc 2d78 da3b de0e 91bc
00000270: 8039 b4bc 41c9 eebc 37af a9bb 126c 093d
00000280: e336 36bc adad bcba 7aaa e73c eb92 f2bc
00000290: 0f0f dc3c 8c6d e23c 16c8 29bc 527a e1bb
000002a0: eab3 0939 3c6a 0e3d f35f 503b b8c7 a63c
000002b0: 382f 473c 7ffd b2bb 8b1a 21b9 e065 b1bc
000002c0: 228c b63c 7498 333d 2bb4 54bc 7310 57bb
000002d0: e171 433c 3ac6 30bc 8657 fb3c e009 e0bc
000002e0: a42b 6cbc 848b f7bc 705d 47bb fccb cc3c
000002f0: 4fdc 77bc 758c 963c bf57 1abb e6db eb3b
00000300: ac5c 1cbc 597f 39bc f6af 95bc f05e fe3b
00000310: 1682 c03c a646 c53c d027 8bbc ff65 1cbc
00000320: f011 5cbc d01b e13c c16b a23c 9422 883a
00000330: 4742 0c3d d88f e13c ec00 a4bc 4f95 dc3b
00000340: 5cd0 32bb d7a4 0dbd ff0f a83c 2550 49bc
00000350: 2363 473a 56d9 463d 062f c6bc 04d9 1bbb
00000360: d618 363d 4a00 87bd 4130 383d 3fd9 98bc
00000370: ec7a cd3b 213e 363c 7a0a f63c 4bcc 683d
00000380: eed7 17bc 7a59 6c3c b604 e9b9 24c9 f13b
00000390: a7d5 cf3c bcdc 84bc 652c 06bc c9c6 88bc
000003a0: 48af 3f3c ec49 243d 2d70 5ebc 454d 123c
000003b0: 56f0 f63c aeb9 743b 39f6 e03c a851 da3b
000003c0: 0feb 693d a068 263c 6623 273c 50d3 313a
000003d0: 68fe cdba 903e 8c3c bac3 7a3d a859 063d
000003e0: 6afa 9bbc 42dc 81bc 19ba 10bb 6dc2 b6bc
000003f0: a2b7 753d 18bd 5d3c da03 2e3c 527d ad3c

network_body._body_endoder.seq_layers.0.weight f4 [256, 43]
-0.11802512 -0.2158253 0.1402771 -0.06890576 -0.15559275 0.014322196 -0.0040008524 0.059497584
0.014097096 -0.023590771 0.29129067 0.21207944 -0.054884236 -0.071270525 0.02176212 0.122984685
-0.029133808 -0.015755586 -0.24527735 -0.109318584 0.07071642 -0.21081221 -0.06292692 -0.15011981
0.08201658 0.05733936 -0.062395245 0.20403242 0.33951485 -0.021523647 0.06236568 -0.042350043
-0.14141363 0.22029169 -0.13312574 0.14724194 0.121328734 0.2932697 0.13267033 0.09741996
0.047091562 0.17947319 0.02252019 0.17402752 0.0797316 -0.06315934 -0.02187217 -0.056857817
0.1241892 -0.3064446 -0.14825176 -0.15834099 -0.20409316 -0.0035619254 0.039061073 -0.26834515
-0.07795846 -0.08772806 0.082096964 -0.031214455 -0.20404898 -0.07905697 0.21640451 -0.1724888
0.24608813 -0.040821023 0.080254525 0.12435736 0.20431575 -0.117080666 0.49041942 -0.06796647
0.0582983 0.24169767 0.18313491 0.027678095 -0.08914018 -0.21495818 0.03642606 -0.036051154
0.25498983 0.21094353 -0.2532329 0.22940244 -0.02730146 -0.18524171 -0.1760505 -0.037452973
-0.060380626 0.05031481 0.06616888 0.25591028 0.08751361 0.0404143 0.016850857 0.03192379
-0.044896893 -0.3841321 0.2977205 0.35764936 -0.075576216 -0.03063266 -0.0763583 0.375854
0.046230476 0.0845309 0.22856428 -0.078222334 -0.007283129 0.15912555 -0.26172927 0.10487116
-0.21430528 0.19192103 -0.044493027 0.20942429 0.071565606 0.13079304 -0.27398834 -0.21947378
0.016835446 -0.06859324 0.04687946 0.09746682 0.05476444 -0.05948074 -0.1417708 0.13781333
0.10498202 0.27235126 -0.14026718 -0.09514663 -0.10208577 -0.22919658 0.095746726 0.06280414
-0.048873696 -0.048930988 -0.06569144 0.04312369 -0.086985916 0.050013512 0.094117805 -0.15518652
0.002618415 0.25150755 0.059381448 -0.037188195 -0.3559107 -0.22694905 -0.19590347 0.0015738661
-0.103404805 0.01629978 -0.104583494 -0.305332 -0.06386783 0.021869702 -0.14555831 0.019303001
0.25983265 0.04501526 0.07261437 -0.21635903 -0.09377966 -0.100872196 -0.03894125 0.021645257
0.17141572 -0.06823218 0.10126555 -0.21899508 -0.027672922 0.12395329 -0.0149554685 0.020761298
0.0636477 0.20714676 0.118518345 -0.018191677 -0.2364713 0.065392956 0.07769517 0.19416323
0.2826728 -0.14226958 -0.13028511 -0.043515943 -0.056989364 -0.14988267 -0.05559795 0.050479125
0.19798878 0.002699091 -0.05999434 0.10394148 -0.28564796 -0.001882303 -0.1633557 0.10619559
0.10947512 -0.043793622 -0.12578909 -0.16707535 -0.06510931 -0.102768674 0.14223513 -0.18702772
0.044994507 -0.28708303 0.25305766 0.057090797 -0.14030041 -0.099618234 0.01456386 -0.14063385
0.2091995 -0.12838042 0.15659353 -0.054325275 -0.08174822 0.033932917 0.13552867 0.11032724
-0.15256745 -0.07620816 0.06496979 0.11238527 -0.009943364 0.058089685 -0.101238005 -0.18833654
0.17869318 0.09599112 0.18104745 -0.19600183 0.13739438 0.47192186 0.24590227 0.2230202
0.08280286 -0.00472905 -0.15474495 0.32857752 -0.13568814 0.008365227 -0.08586714 0.21923274
0.07965479 -0.0733467 0.17093973 -0.01725758 -0.18672235 -0.31242597 0.21635868 0.06573151
00000000: 27b7 f1bd 4f01 5dbe cda4 0f3e 771e 8dbd
00000010: b553 1fbe a5a7 6a3c 9519 83bb bdb3 733d
00000020: 82f7 663c 6f41 c1bc 0d24 953e 5a2b 593e
00000030: 4bce 60bd 48f6 91bd 7946 b23c 65df fb3d
00000040: 06aa eebc dc11 81bc fc29 7bbe 6ce2 dfbd
00000050: c5d3 903d 28df 57be d4df 80bd 02b9 19be
00000060: 4ff8 a73d addc 6a3d 2892 7fbd e0ed 503e
00000070: e4d4 ad3e 5c52 b0bc 2873 7f3d 3d77 2dbd
00000080: bcce 10be 2594 613e 1d52 08be 97c6 163e
00000090: 337b f83d 7227 963e bbda 073e 1e84 c73d
000000a0: 15e3 403d d2c7 373e 437c b83c 4534 323e
000000b0: 524a a33d af59 81bd 442d b3bc bee3 68bd
000000c0: e856 fe3d 4ee6 9cbe 4fcf 17be 2424 22be
000000d0: ccfd 50be 316f 69bb 81fe 1f3d 8964 89be
000000e0: afa8 9fbd c5aa b3bd 7422 a83d 75b5 ffbc
000000f0: 37f2 50be 9fe8 a1bd 2599 5d3e e7a0 30be
00000100: 87fe 7b3e f233 27bd 7c5c a43d 12af fe3d
00000110: 2638 513e fdc7 efbd 4118 fb3e 0132 8bbd
00000120: 33ca 6e3d 987f 773e b887 3b3e 2cbd e23c
00000130: 208f b6bd ff1d 5cbe 7e33 153d 60aa 13bd
00000140: 078e 823e 9501 583e bea7 81be 79e8 6a3e
00000150: 50a7 dfbc 01b0 3dbe 9546 34be 4a68 19bd
00000160: ad51 77bd e716 4e3d 8d83 873d ac06 833e
00000170: 563a b33d 7789 253d cf0a 8a3c 85c2 023d
00000180: cee5 37bd f6ac c4be d26e 983e d11d b73e
00000190: b4c7 9abd 58f1 fabc be61 9cbd ef6f c03e
000001a0: 2b5c 3d3d 891e ad3d c10c 6a3e 0833 a0bd
000001b0: 50a7 eebb cff1 223e 6101 86be b1c6 d63d
000001c0: d872 5bbe f286 443e 523e 36bd 5273 563e
000001d0: fd90 923d 9cee 053e 3348 8cbe bcbd 60be
000001e0: 7dea 893c 9d7a 8cbd ad04 403d af9c c73d
000001f0: ad50 603d 14a2 73bd 5d2c 11be f01e 0d3e
00000200: d000 d73d a071 8b3e 33a2 0fbe 3ddc c2bd
00000210: 5812 d1bd 82b2 6abe dc16 c43d 759f 803d
00000220: c92f 48bd dc6b 48bd 3c89 86bd 77a2 303d
00000230: ac25 b2bd f8da 4c3d d6c0 c03d 37e9 1ebe
00000240: b799 2b3b 99c5 803e f639 733d a652 18bd
00000250: ed39 b6be 5565 68be eb9a 48be 2f4a ce3a
00000260: e6c5 d3bd 1e87 853c df2f d6bd 7a54 9cbe
00000270: 23cd 82bd 1728 b33c 3d0d 15be 5421 9e3c
00000280: c908 853e ec61 383d d8b6 943d 398d 5dbe
00000290: 8d0f c0bd 1596 cebd dc80 1fbd 6551 b13c
000002a0: 9a87 2f3e 50bd 8bbd 5064 cf3d 3f40 60be
000002b0: 53b2 e2bc 39db fd3d c807 75bc 9913 aa3c
000002c0: ba59 823d 481e 543e bfb9 f23d b606 95bc
000002d0: 8825 72be beec 853d a51e 9f3d bad2 463e
000002e0: 7dba 903e 1eaf 11be 7669 05be c63d 32bd
000002f0: ae6d 69bd d87a 19be adba 63bd 33c3 4e3d
00000300: 92bd 4a3e 3ce3 303b a0bc 75bd 45df d43d
00000310: 7340 92be 9cb7 f6ba b746 27be 137d d93d
00000320: 7e34 e03d f160 33bd dbce 00be cd15 2bbe
00000330: 0858 85bd 6278 d2bd 16a6 113e 3284 3fbe
00000340: 294c 383d 8cfc 92be c690 813e 0ad8 693d
00000350: e9aa 0fbe a504 ccbd 429d 6e3c 5202 10be
00000360: 6538 563e 2876 03be 0e5a 203e 2e84 5ebd
00000370: 9c6b a7bd 3efd 0a3d 07c8 0a3e 3ff3 e13d
00000380: a43a 1cbe 0613 9cbd e20e 853d 402a e63d
00000390: 7ee9 22bc 73ef 6d3d df55 cfbd 4bdb 40be
000003a0: 58fb 363e fe96 c43d 8164 393e b4b4 48be
000003b0: 1db1 0c3e be9f f13e cecd 7b3e 685f 643e
000003c0: 8c94 a93d 26f6 9abb 7675 1ebe 503b a83e
000003d0: d5f1 0abe 4e0e 093c 1cdb afbd 8c7e 603e
000003e0: 0d22 a33d cb36 96bd d30a 2f3e c55f 8dbc
000003f0: 2534 3fbe 4cf6 9fbe 218d 5d3e 3e9e 863d

network_body._body_endoder.seq_layers.2.bias f4 [256]
0.0008639171 0.0011318563 -0.01775338 -0.009300623 0.015915455 0.004095396 0.01374249 0.014135405
0.032737635 -0.010919753 0.01134522 0.012929187 0.003413078 -0.0050515 -0.014578781 0.038606968
0.011733224 0.0056492034 0.0147764245 0.00035436708 0.015288659 0.0034099102 -0.0044878004 0.009550989
0.022316778 -0.010299897 -0.019117028 0.00663053 -0.00058750174 0.0040670414 0.0062936223 -0.009378892
-0.016120205 -0.0050317463 0.008275334 -0.007938497 0.015728716 0.033695005 0.018396344 -0.011809707
0.00711273 -0.002864522 -0.020645147 -0.03399052 -0.025509277 0.005770616 0.014818028 0.0002789661
-0.03435669 -0.005323657 0.004633974 0.015198928 0.00016011337 -0.015307292 -0.024335733 0.0014576646
-0.016231868 -0.009271076 -0.005887131 0.011304529 -0.0053879255 0.012070289 0.01629697 -0.024910709
-0.025295364 -0.044170275 -0.03442313 -0.005587903 0.005853007 -0.014086678 -0.00041577558 0.00093294616
0.0104868375 0.0029189591 0.009072508 -0.024852466 0.006317761 0.013862905 0.0048293667 0.0079213
-0.016062776 0.011203445 0.014685276 -0.017175794 0.008257469 0.007962833 0.026837435 0.016905183
-0.013757179 0.009198822 0.001786347 0.017219424 -0.036162954 0.005654473 -0.008075138 -0.03714793
0.0012348171 0.012970855 0.0061062076 0.016990405 0.010983678 0.0035945869 -0.0010322889 0.018850567
-0.016955571 0.0068962798 -0.008940446 -0.011368705 0.00501429 0.008932199 -0.012267727 -0.039534494
0.00421266 -0.040014684 0.026778456 0.011640991 0.00092882966 -0.035367783 0.0015938882 0.008252839
-0.0032852876 0.011969573 0.0017874639 0.019703917 -0.017011516 -0.0068813954 -0.010175739 0.017116318
-0.02220059 0.01579555 0.0024156389 0.012200795 -0.023962732 0.0115940645 -0.0009402514 -0.015225416
0.011947787 0.0057219006 0.008651553 -0.0071592494 0.0009184478 0.016195273 0.007974156 0.01776263
-0.0036453884 0.008609037 -0.0018044524 0.0012961127 0.024746181 0.0060033905 -0.0054832734 0.005088348
0.0030754975 0.008395427 0.022583993 -0.009078408 -0.02678811 0.040769566 0.000738286 -0.008418649
0.0046231244 0.0125965895 -0.04714919 -0.0053289062 0.01948598 0.016028322 0.00029607513 -0.006575858
0.012257404 0.003607416 -0.014099306 0.0008216584 -0.012952024 0.016636191 -0.016234834 -0.027751395
0.0381168 -0.0030303602 0.00080611394 0.009760892 -0.0037629993 -0.024066849 0.011993258 -0.011266532
-0.010379001 0.011133797 -0.0012797428 0.0048206565 -0.0012872241 0.008941365 0.020405157 -0.00029692773
-0.04742633 0.0054970467 0.009363456 0.017783524 0.003072527 0.0023957742 0.0023058278 -0.029227631
0.0010485072 0.0337792 0.03500636 0.024362382 0.030959273 0.009439021 0.010541606 -0.01266385
0.019839035 -0.0071583544 0.013624848 0.006175485 -0.02004573 0.0021789651 -0.0073687914 0.0010766772
-0.015247074 -0.004471438 0.0017806346 -0.013346007 0.011247909 -0.0042003747 -6.3542902e-06 -0.009504135
0.002017998 -0.004009321 0.021126678 0.011778193 -0.0028814136 -0.0049083545 0.017461732 -0.0106856655
0.002533663 -0.021499654 0.0003914378 0.016423063 -0.0038713312 0.01719818 0.0014590237 -0.00044321257
-0.01823499 -0.002466335 0.01125908 -0.0040771053 -0.00059068133 -0.00038802467 0.010068829 -5.3892996e-05
0.0024444074 0.017428936 0.028642302 -0.031891875 -0.016734945 -0.0022505266 -0.004079603 -0.007162535
00000000: 7f78 623a cc5a 943a 896f 91bc a461 18bc
00000010: 2161 823c ac32 863b 2e28 613c 3098 673c
00000020: e617 063d c4e8 32bc 4de1 393c f1d4 533c
00000030: f2ad 5f3b 0e87 a5bb d7db 6ebc 5722 1e3d
00000040: b53c 403c f41c b93b d118 723c 58ca b939
00000050: 497d 7a3c cd78 5f3b 660e 93bb c07b 1c3c
00000060: add1 b63c e6c0 28bc 509b 9cbc eb44 d93b
00000070: 9302 1aba d144 853b bb3a ce3b eda9 19bc
00000080: 850e 84bc 59e1 a4bb 4495 073c 7810 02bc
00000090: 82d9 803c c603 0a3d eeb3 963c 807d 41bc
000000a0: e711 e93b b4ba 3bbb 0320 a9bc a539 0bbd
000000b0: d5f8 d0bc 6f17 bd3b 50c7 723c 3242 9239
000000c0: 9ab9 0cbd 1272 aebb 97d8 973b ed04 793c
000000d0: 1be4 2739 70cb 7abc bb5b c7bc 1c0f bf3a
000000e0: b2f8 84bc b6e5 17bc d6e8 c0bb a236 393c
000000f0: 328d b0bb 76c2 453c 3981 853c 8b11 ccbc
00000100: 3938 cfbc e4eb 34bd 45ff 0cbd ba1a b7bb
00000110: 95ca bf3b cfcb 66bc 74fc d9b9 f590 743a
00000120: fcd0 2b3c 024c 3f3b dba4 143c 6697 cbbc
00000130: 3805 cf3b 3d21 633c aa3f 9e3b 57c8 013c
00000140: 1596 83bc a78e 373c 839a 703c 40b4 8cbc
00000150: 564a 073c 8b76 023c 2eda db3c bd7c 8a3c
00000160: ca65 61bc a8b6 163c dc23 ea3a c00f 8d3c
00000170: 9b1f 14bd 2849 b93b 954d 04bc 6e28 18bd
00000180: 96d9 a13a b683 543c 9516 c83b 762f 8b3c
00000190: e2f4 333c 2993 6b3b de4d 87ba 816c 9a3c
000001a0: 69e6 8abc 30fa e13b f37a 12bc ce43 3abc
000001b0: ea4e a43b 5c58 123c 94fe 48bc ecee 21bd
000001c0: 5a0a 8a3b 70e6 23bd 7e5e db3c dbb9 3e3c
000001d0: b47c 733a cfdd 10bd 03ea d03a ea36 073c
000001e0: fb4d 57bb 071c 443c 5649 ea3a 1c6a a13c
000001f0: bc5b 8bbc 547d e1bb 25b8 26bc 8537 8c3c
00000200: 03de b5bc ab65 813c b24f 1e3b d8e5 473c
00000210: 7e4d c4bc 08f5 3d3c 347b 76ba 0674 79bc
00000220: a7c0 433c c87e bb3b 3ebf 0d3c 2398 eabb
00000230: fdc3 703a f3ab 843c 09a6 023c ef82 913c
00000240: 78e7 6ebb eb0c 0d3c 6083 ecba 53e2 a93a
00000250: 81b8 ca3c 17b8 c43b 08ad b3bb 28bc a63b
00000260: 498e 493b f98c 093c 1102 b93c 9abd 14bc
00000270: bd72 dbbc fdfd 263d 8989 413a 60ee 09bc
00000280: 947d 973b ed61 4e3c 821f 41bd 1b9e aebb
00000290: 10a1 9f3c d44d 833c 883a 9b39 4c7a d7bb
000002a0: 47d3 483c 666a 6c3b c700 67bc 9064 573a
000002b0: ba34 54bc 9f48 883c eafe 84bc e556 e3bc
000002c0: 5d20 1c3d 0299 46bb 6451 533a 26ec 1f3c
000002d0: a79c 76bb d727 c5bc 5f7f 443c 4397 38bc
000002e0: af0c 2abc 876a 363c 0bbd a7ba 99f6 9d3b
000002f0: 13b8 a8ba ce7e 123c b728 a73c f7ac 9bb9
00000300: 1d42 42bd 9220 b43b 2e69 193c c1ae 913c
00000310: 735c 493b 6c02 1d3b 5f1d 173b c96e efbc
00000320: 106e 893a 0f5c 0a3d d462 0f3d 9e93 c73c
00000330: 4d9e fd3c 20a6 1a3c b3b6 2c3c 097c 4fbc
00000340: 7985 a23c a190 eabb c13a 5f3c b95b ca3b
00000350: f136 a4bc f8cc 0e3b e775 f1bb 4b1f 8d3a
00000360: ddce 79bc 2485 92bb 2f64 e93a 36a9 5abc
00000370: 2649 383c 4ca3 89bb f036 d5b6 3bb7 1bbc
00000380: 6340 043b 9f60 83bb db11 ad3c 52f9 403c
00000390: 19d6 3cbb 43d6 a0bb e80b 8f3c ee12 2fbc
000003a0: d00b 263b 0b20 b0bc e439 cd39 a989 863c
000003b0: 29b6 7dbb 33e3 8c3c b63c bf3a fc5e e8b9
000003c0: 8c61 95bc 3ca2 21bb 0178 383c 3d99 85bb
000003d0: f4d7 1aba ca6f cbb9 bbf7 243c 2a0b 62b8
000003e0: 5a32 203b 21c7 8e3c 43a3 ea3c 0ea1 02bd
000003f0: b917 89bc 927d 13bb 31ae 85bb b3b3 eabb

network_body._body_endoder.seq_layers.2.weight f4 [256, 256]
0.05409956 0.05949093 -0.029558325 -0.016241437 -0.018624865 0.00750813 0.0984385 0.071031235
0.09368546 -0.009092002 -0.0068241586 -0.05086063 0.008167415 -0.038720004 -0.057675615 0.011859488
-0.062181406 -0.012872642 0.007870919 -0.03143678 -0.0020279824 0.06494522 0.040418375 0.103024706
0.08701771 -0.05863687 0.08467445 0.13089362 -0.029342666 -0.1611533 -0.04062659 0.006696946
0.018324481 0.039940707 0.06982589 -0.023348927 -0.035006505 0.0692268 0.095979005 0.074189164
0.10341367 0.08710107 -0.0055655325 -0.055479184 -0.010212274 -0.15752523 -0.07451955 0.04517044
0.009190382 0.026242413 -0.00337553 0.04595936 -0.018597245 -0.08553953 -0.012633869 -0.054559406
0.11079939 0.0372416 -0.096491165 0.0015150054 -0.083728075 -0.05214252 0.010939682 0.17879057
-0.015614055 -0.059622757 -0.044270314 -0.03367348 -0.13039596 -0.044698548 0.17611639 0.07075534
0.013694448 -0.10182892 -0.037337262 -0.00834017 0.0059483824 0.08443193 0.08662033 0.04964246
0.08912484 0.040870152 -0.0010162839 -0.022102967 -0.019048903 -0.002701785 -0.033738654 -0.04136372
0.046931747 0.038390003 -0.005333853 0.11064685 0.09588424 -0.014672251 -0.07406173 -0.008045091
-0.0024936376 -0.018624771 0.05730334 0.0427168 -0.04247803 0.06901546 0.038389772 0.017793577
0.0513641 -0.030520778 0.022914926 0.09601937 0.032756492 -0.01847555 -0.009088278 0.11869161
0.053225357 -0.15599395 -0.0901802 -0.059653286 0.023108877 0.06832963 -0.04514546 -0.018475693
0.08800457 -0.012942283 0.009454325 -0.06469608 -0.030023877 -0.036941867 0.053810857 0.043533888
0.10082675 -0.18528928 -0.057112873 -0.15044259 0.022791665 0.034064565 0.17268327 -0.0048065265
0.08422521 0.09019141 0.0842289 -0.032642677 -0.051657557 -0.16008817 0.04004443 0.1731016
-0.13543008 -0.0147654675 -0.02984674 -0.0011471444 0.11335406 -0.09354267 -0.013180799 0.011202143
-0.06771043 -0.06913952 -0.02732484 0.01611068 -0.031086626 -0.024985125 0.049164128 0.12985602
0.04341891 -0.019357821 -0.010135561 0.057057016 0.06252286 -0.08287844 -0.11072224 0.077017486
-0.064106144 0.017756546 -0.05900921 -0.025031902 0.042193156 -0.1017376 -0.052523486 0.004683084
-0.056688227 -0.013441489 -0.15075353 0.082292855 -0.0016592633 0.06409608 -0.018676395 0.05030955
-0.011955899 0.012718243 0.056555457 0.07413775 -0.090854704 0.03193715 -0.1090249 0.122593045
0.021085635 -0.04996061 0.033743203 -0.10978524 0.0032901492 0.036382206 0.065264195 -0.051823903
0.024511939 -0.03731077 -0.019246152 -0.031677924 0.041769203 0.008563662 0.07903572 0.008382695
0.0571621 0.015745346 0.030584244 0.038847096 -0.022293553 -0.036548574 -0.03395567 0.00025988926
0.06801629 -0.06337628 -0.06566724 -0.07904091 -0.010871172 -0.022925597 -0.026396938 4.1130257e-05
-0.06626357 0.022614015 -0.038065933 -0.07550659 -0.03365666 0.04484885 0.17551875 -0.07606634
-0.032261945 0.026770998 0.17050448 0.0051731733 -0.02393828 0.07989566 -0.023503222 0.005620594
0.030074505 0.025164906 0.04329723 -0.0086210575 -0.011072638 -0.10145707 -0.012188606 0.052975193
0.031360857 0.04365711 0.033496454 0.041346986 -0.012432033 0.06306743 -0.050329134 -0.10311854
00000000: 8097 5d3d c3ac 733d 4d24 f2bc c30c 85bc
00000010: 2c93 98bc c206 f63b 209a c93d d378 913d
00000020: 2ade bf3d 9ff6 14bc 319d dfbb 3c53 50bd
00000030: 9fd0 053c de98 1ebd 443d 6cbd 4c4e 423c
00000040: eeb1 7ebd c6e7 52bc 07f5 003c dac3 00bd
00000050: e6e7 04bb 0002 853d bd8d 253d 9efe d23d
00000060: 5736 b23d 372d 70bd cc69 ad3d fa08 063e
00000070: 0860 f0bc 5f05 25be 1168 26bd 0e72 db3b
00000080: 391d 963c de98 233d e000 8f3d 4046 bfbc
00000090: fb62 0fbd c8c6 8d3d a490 c43d 7df0 973d
000000a0: 8cca d33d 0c62 b23d 125f b6bb 243e 63bd
000000b0: 6251 27bc 4b4e 21be b59d 98bd a404 393d
000000c0: 4293 163c 54fa d63c ff37 5dbb e23f 3c3d
000000d0: 4059 98bc 592f afbd 4afe 4ebc af79 5fbd
000000e0: caea e23d a68a 183d 299d c5bd 2593 c63a
000000f0: a079 abbd 6593 55bd 5a3c 333c e014 373e
00000100: 18d2 7fbc fe36 74bd ca54 35bd 34ed 09bd
00000110: 8586 05be d315 37bd db57 343e 2de8 903d
00000120: ae5e 603c ae8b d0bd f5ee 18bd 35a5 08bc
00000130: a6ea c23b a6ea ac3d 0066 b13d e455 4b3d
00000140: 1687 b63d 7667 273d d434 85ba 4811 b5bc
00000150: 720c 9cbc 6e10 31bb 8b31 0abd 016d 29bd
00000160: 813b 403d d63e 1d3d 9ac7 aebb d19a e23d
00000170: f55e c43d e263 70bc adad 97bd 8fcf 03bc
00000180: 4c6c 23bb fa92 98bc e8b6 6a3d d0f7 2e3d
00000190: 71fd 2dbd fa57 8d3d 983e 1d3d d6c3 913c
000001a0: 2a63 523d b606 fabc 15b8 bb3c cea5 c43d
000001b0: ac2b 063d 095a 97bc 00e7 14bc 9614 f33d
000001c0: d502 5a3d e1bc 1fbe 66b0 b8bd 0157 74bd
000001d0: d44e bd3c 68f0 8b3d 72ea 38bd 565a 97bc
000001e0: bd3b b43d df0b 54bc 50e6 1a3c 617f 84bd
000001f0: a2f4 f5bc 5b50 17bd c668 5c3d 9750 323d
00000200: 417e ce3d 79bc 3dbe 30ef 69bd 9f0d 1abe
00000210: 96b5 ba3c 4987 0b3d e2d3 303e 1180 9dbb
00000220: 447e ac3d 46b6 b83d 3480 ac3d 54b4 05bd
00000230: e096 53bd 27ee 23be a105 243d 8c41 313e
00000240: 2fae 0abe dcea 71bc 2781 f4bc c75b 96ba
00000250: 2c26 e83d 4d93 bfbd 47f4 57bc 3189 373c
00000260: c4ab 8abd 0599 8dbd 58d8 dfbc 8bfa 833c
00000270: 61a9 febc 9bad ccbc 5360 493d faf8 043e
00000280: 07d8 313d 4b94 9ebc a00f 26bc 9eb4 693d
00000290: fc0b 803d 2cbc a9bd 57c2 e2bd 58bb 9d3d
000002a0: 154a 83bd 2d76 913c a4b3 71bd b40f cdbc
000002b0: bbd2 2c3d ce5b d0bd de22 57bd 8e74 993b
000002c0: ea31 68bd b139 5cbc 225f 1abe 2889 a83d
000002d0: a37b d9ba ce44 833d 3dff 98bc 6311 4e3d
000002e0: ade2 43bc 2d60 503c b2a6 673d 88d5 973d
000002f0: 0812 babd 87d0 023d 7248 dfbd 1012 fb3d
00000300: c8bb ac3c 7fa3 4cbd 5036 0a3d 15d7 e0bd
00000310: 8b9f 573b 8205 153d 3ca9 853d 4d45 54bd
00000320: 43cd c83c 2ed3 18bd 1baa 9dbc b6c0 01bd
00000330: 2f16 2b3d 9a4e 0c3c 7bdd a13d 9257 093c
00000340: ce22 6a3d 62fc 803c cf8b fa3c 221e 1f3d
00000350: f8a0 b6bc f5b3 15bd 1a15 0bbd bf41 8839
00000360: 204c 8b3d 6ccb 81bd 8c7c 86bd 33e0 a1bd
00000370: 001d 32bc 76ce bbbc 643e d8bc 4783 2c38
00000380: 32b5 87bd 0741 b93c 06eb 1bbd 33a3 9abd
00000390: 91db 09bd 6eb3 373d 30bb 333e abc8 9bbd
000003a0: 1a25 04bd da4e db3c ba98 2e3e b983 a93b
000003b0: 361a c4bc 56a0 a33d d489 c0bc f62c b83b
000003c0: cf5e f63c a226 ce3c 7058 313d 563f 0dbc
000003d0: 036a 35bc b9c8 cfbd b8b2 47bc 84fc 583d
000003e0: 3e74 003d ccd1 323d 9433 093d 755b 293d
000003f0: baaf 4bbc 7f29 813d ec25 4ebd d02f d3bd
