GameBreaker/NNModels/lv1_gb-rnd.onnx (onnx, 316421 bytes, 9 tensors)

action_model._discrete_distribution.branches.0.bias f4 [2]
000000 d5 e9 26 bc cf e9 26 3c
       -0.010187586 0.01018758

action_model._discrete_distribution.branches.0.weight f4 [2, 256]
000000 74 ba 1b 3c 67 bc 9a 3c 2d 9f 13 bc 89 a0 eb 39
       0.009504903 0.018888665 -0.009010118 0.000449423
000010 95 8d 39 bc 3f 75 0e bc 4e e9 7e 3b cc 61 d6 3b
       -0.01132526 -0.008694946 0.0038896385 0.00654242
000020 5c 5e cd 3a c9 0e 41 b9 21 b7 9a 3c 1e 59 39 bb
       0.001566838 -0.00018411422 0.01888615 -0.0028281878
000030 9b 94 8d 3c 3c 4e b1 3b 4f 6b ff 3b 00 91 ef 3a
       0.017282775 0.0054109376 0.0077947746 0.0018277466
000040 00 80 a4 3b f6 f5 44 3c d9 04 56 bc 95 57 70 bc
       0.0050201416 0.012021532 -0.013062679 -0.014669319
000050 18 34 53 3c 88 9e e7 3a e9 ae 1f 3c 24 54 b8 38
       0.012890838 0.0017671147 0.009746292 8.789476e-05
000060 97 21 37 bc 95 1e 03 bb ff 0d 64 bb 72 59 2d ba
       -0.011177442 -0.0020007242 -0.0034798381 -0.00066127547
000070 01 ea 47 3c 9b 35 6d bc 40 1a c7 3b 5e a2 69 3c
       0.012201787 -0.014478113 0.0060761273 0.014259903
000080 dc 51 fe b9 4b 52 80 3c 94 c0 84 3c 82 c5 d4 b9
       -0.00048507645 0.01566424 0.01620511 -0.00040582946
000090 c7 fa 04 3c 7e 7d 25 3c 9f 43 c2 bc 9a 30 75 bb
       0.008116431 0.01010072 -0.023713885 -0.0037413002
0000a0 7b 7c c9 3c 0f 0d d8 3b 81 0e d7 3b 17 7a b7 3b
       0.02459549 0.0065933536 0.0065630083 0.005599271
0000b0 65 72 83 3c 96 ca fd 3c 32 4c 95 3c a4 2a 09 3c
       0.016045759 0.03098039 0.01822481 0.008371983
0000c0 40 43 73 3b a0 6b 26 b9 f3 76 4b 3c fb ce c3 3b
       0.0037118942 -0.00015871087 0.012418496 0.0059756017
0000d0 7f 77 47 bc 7c 84 81 bb 4b 1a 79 3c 45 63 80 ba
       -0.012174486 -0.003952561 0.015204023 -0.000979521
0000e0 bd 46 5f bc 6e 2a 01 bb 1d c8 62 3b df 6b 10 3c
       -0.013627705 -0.0019709128 0.003460414 0.008814781
0000f0 4f 06 29 bb 5a 98 d1 bb 78 dd 71 3a 91 5f f2 3c
       -0.0025791114 -0.0063963355 0.0009226422 0.029586585
000100 3f 28 80 3a d1 96 ec b7 21 34 b1 3b 4b 1c 30 bb
       0.0009777619 -2.8203622e-05 0.0054078256 -0.0026872333
000110 9a 96 01 ba 7e 5d cd b9 c0 ed c0 3a 30 06 45 3c
       -0.0004943401 -0.00039170304 0.0014719293 0.012025401
000120 95 72 05 bc 0d cd 19 3c 33 4f 4a bb 80 f3 8b 3b
       -0.008144994 0.009387267 -0.003086996 0.004270971
000130 99 ca 14 3b ad 22 91 bb f3 78 a0 3c 82 fb 0a bc
       0.0022703765 -0.0044291825 0.019588923 -0.008482816
000140 a2 8c 0d bc 07 26 39 3b cc 9f cc 3b 12 69 00 3b
       -0.0086394865 0.0028251426 0.006244635 0.0019593877
000150 a8 2b da b9 b2 32 4a 3c f5 4f 72 3b 50 46 2f bc
       -0.00041612727 0.012341188 0.0036973928 -0.010697916
000160 6b 94 6c bb 46 2a 43 bc 6e 56 57 3b dc da da bb
       -0.0036099206 -0.011911934 0.0032857913 -0.006678922
000170 8f c0 cc 3b 30 7f c6 3b 45 95 0f 3b ee 65 5b bb
       0.0062485407 0.0060576424 0.002190904 -0.0033477503
000180 32 30 9f ba 69 33 c4 3b 5b 87 ae 3c f0 23 2c 3c
       -0.0012145101 0.005987574 0.021304777 0.010506615
000190 c5 6f 46 b9 51 91 3a bb 02 c5 d0 3b d5 60 93 bb
       -0.00018924389 -0.0028467963 0.0063711414 -0.0044976273
0001a0 30 f7 82 bc ac a4 c1 3b 9e 0e 01 3c 70 54 16 bb
       -0.015987009 0.005909523 0.00787702 -0.0022938512
0001b0 6a 2f 43 3c 14 44 d9 3b 1f 9f 00 3c 5e 5c 0f bc
       0.01191316 0.00663043 0.007850437 -0.008750049
0001c0 29 25 38 bc f2 76 b3 3c bf 20 0a ba 86 ed df 38
       -0.011239328 0.021907303 -0.0005269162 0.00010677711
0001d0 39 83 7f 3c a9 fb 11 3c bc 7a 15 3b ec 31 d7 3a
       0.015595251 0.008910098 0.002280875 0.0016418076
0001e0 ca c0 f9 3a 2a 1b cd 3b 5f 3b 7f 3c d5 ba f5 3b
       0.0019054648 0.0062593417 0.01557812 0.0074990788
0001f0 79 ae 59 3c c0 1a 26 bc 12 b9 dd bb fb 5f 97 b9
       0.013286226 -0.010138214 -0.006766447 -0.00028872475
000200 e4 53 ab 3b d2 fa a5 3c ad 97 b0 3b 26 2c af b9
       0.0052285064 0.020261202 0.005389175 -0.00033411494
000210 94 3b 6d 3c ea 45 04 3b 73 3b 29 3c 82 08 2b bb
       0.014479537 0.0020183274 0.010329115 -0.00260976
000220 57 78 c8 3b 9d 47 b4 bb 61 da 96 3c 61 f7 63 3b
       0.0061178613 -0.005501701 0.018414678 0.00347849
000230 48 33 3f 3b bb a8 fd b9 fd 1c c1 ba 6f 35 0d 3c
       0.0029174853 -0.00048381634 -0.0014733371 0.008618697
000240 06 85 64 3c 9b 20 74 3c f1 1f b0 3c 20 f5 33 ba
       0.013947731 0.014900352 0.021499606 -0.00068648346
000250 44 00 08 3b 28 3f 78 3a 5f fd 5f bc a2 73 2a bb
       0.0020752111 0.000946986 -0.013671248 -0.0026008864
000260 33 64 44 bc 3a 7f 2e bc 1e f8 24 3c f6 59 de 3b
       -0.01198678 -0.01065045 0.010068921 0.0067856265
000270 6b 1d 93 3c f0 a6 92 ba 63 3c be 3b 2e a8 47 3c
       0.017958364 -0.0011188667 0.0058055385 0.012186093
000280 aa e8 03 bb 2f f9 d7 b9 ef 1d 3c bb a5 04 00 3a
       -0.0020127692 -0.00041193652 -0.0028704365 0.00048835046
000290 3b 7b 18 3b 44 26 2c 3c 36 b0 07 3a f1 05 b1 3b
       0.002326681 0.01050717 0.0005176099 0.0054023196
0002a0 24 64 97 3b 41 a1 46 3c 83 ed 47 ba 33 1f 14 3c
       0.004620092 0.012123407 -0.00076266396 0.009040642
0002b0 70 1d c6 3c d5 12 22 3a 52 03 f7 3a 20 f3 84 ba
       0.024183959 0.0006182616 0.0018845594 -0.0010143258
0002c0 91 f7 c7 3b e3 b4 8a 3c 9e 9b 4f bc 51 7e bb 3b
       0.0061025103 0.016931957 -0.012671379 0.005721845
0002d0 58 2e 4e 3c 44 54 40 bb 93 cb f5 ba dd 56 33 3c
       0.012584291 -0.0029347101 -0.0018752686 0.010946003
0002e0 0e 22 c4 3a 78 bb b7 ba 03 75 72 3c e2 76 6f 3c
       0.0014963762 -0.0014017662 0.014798406 0.014615746
0002f0 dd 9a 0d bc 1f 03 f5 3a 80 f7 be 39 0a f5 39 3c
       -0.008642879 0.0018692947 0.00036424026 0.011349926
000300 cb 21 0f 3c 37 42 ce 3c d5 7e 3a 3c 8e eb a2 3b
       0.008736084 0.025178058 0.011382778 0.004971928
000310 e9 6c 94 3c 54 a9 32 bc 61 c1 1d b9 70 53 fe bb
       0.018118339 -0.010904629 -0.00015044726 -0.0077614114
000320 44 ea 59 39 65 92 4b 3c a1 74 3a bb ff 9e bc 3a
       0.00020782003 0.01242504 -0.0028450864 0.0014390646
000330 de 56 eb bb 31 25 17 3c 13 79 79 3b 4c 58 c4 3c
       -0.0071819862 0.009225176 0.003806655 0.023967884
000340 d4 cb 86 3c bd 91 91 bb c2 5b 8e 3c d7 20 5d bb
       0.016454615 -0.004442422 0.017377738 -0.0033741498
000350 a1 40 1c 3c 47 e9 23 3c 5b 99 1a b9 1a 1c b5 3b
       0.009536893 0.010004348 -0.00014743714 0.0055270316
000360 43 80 8f 3c f5 58 31 bc 4e 25 2e 3c eb ce 7a ba
       0.017517215 -0.010824432 0.010629011 -0.00095675763
000370 a7 47 d9 3b ab 5e 84 bb 3e cd 1a bc 46 76 cc 3b
       0.006630856 -0.0040396056 -0.009448348 0.006239685
000380 6c 1b a8 bb 4e 2d e1 bb 9f f9 9e bb 53 7c 88 ba
       -0.005130222 -0.006871856 -0.0048515345 -0.0010413028
000390 b2 99 5d bb 0c cb b3 3c 5f 21 5b 3c fa 8b 82 b9
       -0.0033813533 0.021947406 0.0133746555 -0.00024899823
0003a0 15 d7 97 3c 20 13 e9 3b 4e 5b 12 bb 38 7d 1a bb
       0.018535176 0.0071128756 -0.0022332254 -0.0023573171
0003b0 7b 07 1e 3c 22 50 23 bc fa 95 86 3c 62 ab 1e bc
       0.009645338 -0.009967836 0.016428936 -0.0096844155
0003c0 8c ea 9f 3c de b7 21 3c 39 b9 d0 3c 69 3c 96 3c
       0.01952102 0.0098704975 0.025478946 0.018339353
0003d0 cc c2 6a 3b bd 28 98 3c 18 c7 58 3b 3c 03 40 3b
       0.0035821674 0.018574113 0.0033077653 0.0029298803
0003e0 aa 19 ad ba f2 ef fd 3b 65 f6 28 bc 85 7c 2b 3c
       -0.0013206501 0.007749551 -0.010312651 0.0104666995
0003f0 9d 07 2b bb c9 73 0c 3c ba a4 36 3c 62 da c8 bb
       -0.0026097067 0.008572527 0.011147672 -0.006129549

action_model._discrete_distribution.branches.1.bias f4 [3]
000000 77 fb ac bb 88 82 c5 3b 42 c7 c0 3a
       -0.0052790004 0.0060275234 0.0014707821

action_model._discrete_distribution.branches.1.weight f4 [3, 256]
000000 07 07 94 3b 16 cb 68 3c 2b a6 68 bb 9b 7f 31 3c
       0.0045174393 0.014208576 -0.0035499434 0.010833646
000010 ea 28 06 bc 38 4e 76 3b 5f 91 ed 3b d8 f0 fd ba
       -0.008188466 0.0037583243 0.0072499956 -0.0019374145
000020 86 54 87 3c f1 1c 07 bc c2 a2 0c 3b fb 3d d2 bb
       0.016519796 -0.008246646 0.0021459316 -0.00641608
000030 c8 16 ed 3b 9d 74 eb bb 24 14 94 3c f5 04 97 39
       0.0072353818 -0.0071855322 0.01807601 0.00028804658
000040 5e 61 0d 3c c0 d4 b1 3c eb 5f b9 ba d4 ed 2c b9
       0.008629171 0.021707892 -0.0014142966 -0.00016491796
000050 ee b4 b5 3a 1c 56 1b 3c 7e 8b 5d bc 3b 8e 3b bc
       0.0013863125 0.009480979 -0.013522027 -0.011447485
000060 20 69 57 bb 35 b1 7d 3b cb df 7c bb 14 13 e4 3a
       -0.0032869056 0.003871036 -0.003858554 0.0017400705
000070 65 46 9f 3c b1 77 0f 3b 95 40 41 3c 4e 8c c8 3b
       0.019442746 0.002189141 0.011795183 0.0061202412
000080 74 b3 64 ba 4d 4d d4 3a ed ca 52 3c 9e 25 f0 3a
       -0.00087242504 0.0016197354 0.012865764 0.0018321758
000090 a5 8f 00 3c 03 f4 06 3c c2 67 e3 bb 26 7f 9f bb
       0.0078467475 0.008236888 -0.006939859 -0.004867452
0000a0 30 38 7b 3c a9 3b 84 3c c8 78 b1 bb 5c 9a f9 3a
       0.01533322 0.01614173 -0.0054160096 0.0019043195
0000b0 e8 ce f8 3b e7 f0 c5 3a 21 1c 22 3c 88 03 4b b6
       0.0075930245 0.0015101702 0.009894402 -3.0251413e-06
0000c0 ed d7 9b 3c 1d 16 77 bb 15 bc 77 3b 8a d3 3a 3c
       0.01902386 -0.003770239 0.0037801315 0.011402974
0000d0 9e 75 3d 3a 15 72 0c 3c 0c 24 6d 3c 0c 20 5a 3c
       0.0007227304 0.008572121 0.014473926 0.013313305
0000e0 73 df 98 3b 3b de 02 3b 04 19 88 39 58 af 78 3b
       0.004665309 0.0019968885 0.0002595858 0.003794631
0000f0 01 50 25 3a b6 a0 14 3b ac 78 2c 3c 95 39 af 3c
       0.0006306172 0.00226788 0.010526817 0.021389762
000100 e8 74 b2 3b f4 70 80 bc 22 6c 58 ba 6e f0 be 3b
       0.005446065 -0.01567886 -0.0008255859 0.0058270013
000110 7b d0 cc 3b 7c ff 2b 3c 6d 04 11 3c 94 82 db 39
       0.0062504387 0.010497924 0.008851153 0.00041868223
000120 2f 22 27 ba ff 28 25 3c 91 4f b1 bb ab 4a ad 3b
       -0.0006375638 0.010080575 -0.0054110964 0.005288442
000130 e0 eb 62 3c 6d 2b 7b 3c 7d 31 4d 3a a2 a8 7d 3c
       0.013850182 0.015330178 0.0007827504 0.0154821
000140 71 98 b1 bb ee 47 8f 3b d5 84 4e 3b d2 56 0d bb
       -0.0054197838 0.0043725884 0.003151228 -0.0021566642
000150 f3 f3 c6 bb ba e4 41 3c 42 8e 5f 3b e7 15 71 3b
       -0.0060715615 0.011834318 0.0034111892 0.0036786736
000160 ae 14 82 3b cc 01 81 bb e5 69 4f 3b d1 af 27 3b
       0.0039697504 -0.003936982 0.0031648811 0.0025586972
000170 87 77 05 3c e8 70 69 3b b4 55 96 3c df 9c 50 3c
       0.008146173 0.0035620276 0.018351413 0.0127327135
000180 22 9a 85 3a d4 61 ba ba 26 48 5f 3c 3d 57 24 3b
       0.001019303 -0.0014219829 0.013628041 0.0025076412
000190 28 2f e1 3b 8d a1 a7 3b a1 f4 91 3c 7b f9 19 bc
       0.0068720765 0.005115694 0.017816843 -0.00939786
0001a0 41 0c cf 3a e0 14 a1 3a 6b 91 89 3b a9 24 49 3c
       0.0015796499 0.0012289546 0.0041982434 0.012276807
0001b0 58 f7 11 3a dc bf 07 bb 95 00 af bb 0b 26 d5 b9
       0.0005568168 -0.0020713722 -0.0053406456 -0.0004065487
0001c0 4f 13 53 3b aa 06 8e 3c ce 85 99 3b 86 a9 a3 3b
       0.0032207554 0.017337162 0.00468514 0.004994574
0001d0 7c fb f2 39 36 8a 09 3c b6 75 b1 3a c9 0c f6 ba
       0.00046345207 0.008394768 0.0013539109 -0.0018772121
0001e0 37 b7 ff bb 93 92 0d bc 13 73 5c bb bc e4 03 3c
       -0.0078038233 -0.008640903 -0.0033637926 0.00805014
0001f0 c6 be 58 3a d4 4c 80 3c e0 6e 46 3a 63 14 24 3b
       0.00082681736 0.015661635 0.0007569622 0.0025036565
000200 0b c5 8b 3b 71 07 8c 3b 14 b2 24 ba 1f ae 86 bc
       0.0042654327 0.004273348 -0.0006282639 -0.01644045
000210 c5 cb 00 3c 40 1b 47 bb 31 12 2d 3c 67 b3 3f 3b
       0.007861082 -0.0030381233 0.010563419 0.002925122
000220 43 ab a2 3a e8 ab d8 3a bf 8d 32 3c 2d c3 b8 3a
       0.0012410659 0.0016530724 0.010898053 0.0014096253
000230 77 90 62 3b e8 7f 0f 3c 51 25 85 bc 92 41 b4 3a
       0.003457097 0.008758523 -0.016253145 0.0013752452
000240 6f f3 b4 b8 95 a1 29 bb 7d fa 72 3c df f7 41 bb
       -8.628412e-05 -0.0025883664 0.014830229 -0.0029597206
000250 7f 6e 00 3c 90 a5 0b 3c d6 9c 54 bb 73 ab f6 3b
       0.007838844 0.00852336 -0.0032442114 0.0075277626
000260 b8 a8 18 bc 04 4f 2e 3c 48 eb cf 3b 21 11 83 3c
       -0.009317569 0.010638956 0.0063451864 0.015999379
000270 e4 3a 22 3c b7 6a c9 3b 45 4d 32 3c 0e 7f 2f 3c
       0.009901736 0.0061467546 0.01088268 0.010711445
000280 66 97 8f bb 4c e7 15 3c 7b 19 ff bb 40 2c 98 bb
       -0.004382062 0.009149384 -0.00778502 -0.004643947
000290 30 6d b8 bb a9 f9 86 3b d9 2c f8 3b 7d 08 f5 3b
       -0.0056282505 0.0041191173 0.0075737056 0.0074778185
0002a0 e8 74 9e 3b 4c 0e 16 3b 8d 4c e2 39 2a f1 aa 3b
       0.0048357137 0.0022896705 0.00043163114 0.0052167373
0002b0 12 57 25 bb 6c 76 42 3c f2 64 2a 3c 1e bd 36 3c
       -0.00252289 0.011869054 0.010400044 0.0111534875
0002c0 e1 13 b3 39 51 61 f8 3b 40 0c 11 bc 7a c8 1a 3c
       0.00034156351 0.0075799604 -0.008853018 0.009447211
0002d0 55 cb 72 3c 7f b1 af 3b 79 eb 3e bb 40 3a 39 3b
       0.014818986 0.0053617354 -0.0029132052 0.002826348
0002e0 b8 f3 5e bb 82 ea 21 3c 5a 2d 99 bb 64 60 61 3b
       -0.003401978 0.009882571 -0.004674596 0.0034389729
0002f0 d4 88 b8 3b 89 bf 21 bb c2 3f 88 3a f8 ea 84 3b
       0.0056315456 -0.0024680814 0.0010394978 0.004056331
000300 e7 2b 1e 3c 8f 76 06 3c 00 fd d2 3b 59 18 aa 3b
       0.009654022 0.0082069775 0.0064388514 0.0051908907
000310 f5 4f 95 bb 0b 9c de bb a0 99 a8 bb 7f ba 95 3b
       -0.0045566508 -0.006793504 -0.0051452667 0.004569351
000320 fa 42 12 3c 46 01 c7 3b 9b 7c 20 bc 32 65 26 bb
       0.008927101 0.00607315 -0.009795333 -0.0025389907
000330 8a b9 ab 3b a3 17 26 ba 77 a2 91 3b 10 21 b3 3b
       0.005240624 -0.00063359196 0.004444416 0.005466588
000340 9f 81 e3 39 88 e9 88 3b fd 62 2e 3c 22 4b fa 3b
       0.0004339339 0.0041782297 0.010643718 0.007638351
000350 b4 4a 5e 3c a1 ef 0e 3c 35 c8 39 bc d2 09 8c 3b
       0.013567615 0.008724124 -0.011339237 0.0042736316
000360 94 9b a6 bb 06 64 ba 3b 52 ae bb 3a bf b0 3b 3a
       -0.0050844643 0.0056881933 0.0014318919 0.0007159821
000370 c6 2f 5d bb c6 83 04 bc 30 af 50 bc 8d f3 73 3a
       -0.00337504 -0.008088058 -0.01273708 0.0009306006
000380 16 1a 8d 3c 5d 07 f5 3b 09 ac bb 3b 23 eb 97 3b
       0.017224353 0.0074776844 0.0057272953 0.004636185
000390 af 2c 02 39 25 61 6e 3b 6f 0e 59 3c 2e 03 1b bb
       0.00012414412 0.003637382 0.01324807 -0.0023653018
0003a0 04 f1 f9 3b 35 76 35 3b 58 2e c2 3b 4d 6a e7 3a
       0.0076276083 0.0027688865 0.0059259348 0.0017655581
0003b0 0c 1c 8a 3b 79 e2 0a bc a2 cb cb 3b 03 3f 8d 3a
       0.004214769 -0.008476847 0.0062193433 0.0010776225
0003c0 d2 87 ea 3b e8 8c 49 3b 60 26 f5 3c cc 27 4d 3c
       0.0071573043 0.0030754153 0.029925525 0.012521695
0003d0 56 c4 ab 3c f9 24 3f bc 1f 71 9d bb f5 c8 cb 3b
       0.020967644 -0.01166653 -0.004804745 0.0062190243
0003e0 51 76 b9 bb b6 47 92 3c 91 47 24 bc b0 bd 65 3b
       -0.0056598564 0.01785646 -0.010026828 0.003505569
0003f0 af 43 9a 3c 02 62 11 bc dd 3c 33 b9 cb 5b 64 bb
       0.018831102 -0.008873465 -0.00017093444 -0.0034844752

discrete_action_output_shape f4 [1, 2]
000000 00 00 00 40 00 00 40 40
       2.0 3.0

network_body._body_endoder.seq_layers.0.bias f4 [256]
000000 00 81 05 bc a2 43 a5 3b 1d 9f bd ba 52 b7 cb bc
       -0.008148432 0.005043463 -0.0014466975 -0.024867687
000010 4d 8d 40 bc 90 88 21 3d c3 cd 72 bc 3b d3 64 bc
       -0.011752439 0.039436877 -0.014819565 -0.013966377
000020 12 a1 a7 bc 39 c6 53 bc 5e 63 86 3c 4f e8 7e 3c
       -0.020462546 -0.012925678 0.016404804 0.015558316
000030 5a 46 43 3b b0 19 57 3c 9a 9f 0d bc 0b 16 9f bc
       0.0029796571 0.013128683 -0.008644009 -0.01941969
000040 e8 f8 b4 bc 30 08 04 3c ca fb 43 3b 90 4d 52 bc
       -0.022091344 0.008058593 0.0029904717 -0.012835875
000050 49 76 eb 3c 14 f3 27 bc e0 a3 e6 3c ba a1 0b 3b
       0.028742926 -0.010250825 0.028154314 0.0021306113
000060 49 a6 db bb bb c3 ae 3c 44 86 1f 3c 31 e3 be bb
       -0.0067031723 0.021333566 0.009736601 -0.005825423
000070 ce 77 4c 3c cc 45 ab bb 64 fa 0e 3d b4 bf fc 3a
       0.012479736 -0.0052268263 0.03490676 0.0019283206
000080 8d 2f cf 3c ac 88 13 bc 53 ee 90 bc 4c 36 42 bc
       0.025291229 -0.009004753 -0.017691767 -0.011853766
000090 67 5c a6 3c 43 29 96 ba 8b 1d 90 3c 27 ae 45 bb
       0.020307733 -0.0011456389 0.017592212 -0.0030163617
0000a0 68 15 4b bc d6 25 c2 3a 1d 1b 8d bb b5 aa 17 3c
       -0.01239524 0.0014812301 -0.0043062107 0.009257008
0000b0 e5 90 49 bc 4b a5 04 bd a8 4e 24 3c 2e 34 08 bc
       -0.012302612 -0.0323842 0.010028519 -0.008313222
0000c0 b7 ce 8b bc fd 6e ca 3c 2d 15 ce 3c 05 09 82 bc
       -0.017066343 0.024711126 0.025156582 -0.015873441
0000d0 5a ae e3 bb 94 dc 86 bc 13 c4 0b 3c d2 4e f5 b9
       -0.0069482746 -0.016462602 0.008530634 -0.00046788767
0000e0 13 65 20 bd 1f 73 9e bc fc e9 09 bc 01 17 49 3c
       -0.039158892 -0.019342003 -0.008417603 0.012273551
0000f0 a8 7d 43 3c 7b ee 7e bc e2 a4 02 3a 84 62 a6 bb
       0.011931814 -0.015559788 0.0004983676 -0.005077662
000100 ab 19 72 bb 3f 89 2d bc b2 b7 3a 3c 5d 94 4c bc
       -0.0036941569 -0.010591804 0.011396335 -0.012486544
000110 d3 3f 33 3c d3 f4 3c ba 21 73 d4 3b 7c 52 59 bc
       0.01094051 -0.00072081125 0.006483451 -0.013264295
000120 a9 6e 4b 3c 31 23 26 3d 05 2e 97 bc e6 32 16 3d
       0.01241652 0.040560905 -0.018454561 0.036669634
000130 a1 42 24 bc 47 7e b1 bc 22 19 4d bc f1 74 13 bc
       -0.010025651 -0.021666659 -0.012518199 -0.009000049
000140 10 d7 c9 bb 98 91 97 3c f0 d9 ff ba 56 77 15 bc
       -0.0061596707 0.018502042 -0.0019519906 -0.00912269
000150 65 17 c0 3c 50 c9 92 bb 31 85 d9 bc 84 d8 9e bc
       0.023448655 -0.0044795647 -0.026552768 -0.019390352
000160 80 15 8a 3b fc 2a 7c bc ff 56 7c ba f1 29 eb 3b
       0.004213989 -0.015391108 -0.00096260005 0.0071766307
000170 30 4d 9c ba d5 f7 4c bb b2 cb ab bc 62 13 28 bc
       -0.0011924859 -0.003127565 -0.020971153 -0.0102585275
000180 9d cd f0 3c 78 cb e4 bc 7b c0 18 bc a3 6a 1e 3b
       0.029394919 -0.027929053 -0.009323235 0.0024172447
000190 b0 9c 4c bc c2 f6 19 bc 77 52 81 3c 8f d3 a2 3c
       -0.012488529 -0.009397211 0.015786393 0.01987627
0001a0 86 1b 98 3b c6 39 a5 3b 8b 0f ca bc 52 d5 31 bc
       0.004641953 0.0050422875 -0.024665615 -0.010854082
0001b0 c2 e3 16 bc 8c ba a6 3c 0f 3b 6e bc 92 00 c0 3b
       -0.009209575 0.020352624 -0.014540448 0.005859443
0001c0 49 93 ac 3b f7 bf ee 3a 19 f7 94 3c 86 4c 6f bc
       0.005266581 0.0018215169 0.018184232 -0.014605647
0001d0 98 aa e6 3b 0b b4 fe 3c 50 dc 65 39 13 11 05 3c
       0.0070393793 0.03109171 0.00021921215 0.008121747
0001e0 bf e5 1a bc 76 50 c9 bb 8e 04 09 3c d2 1a 37 bb
       -0.00945419 -0.006143625 0.008362902 -0.002793957
0001f0 f2 2c 4a bc 57 96 84 bb cb 8f a4 bb ab 2f 07 3d
       -0.012339817 -0.004046242 -0.0050220243 0.033004444
000200 09 e6 e7 bb af bf 20 bc 75 f0 a6 ba 68 fe 97 bc
       -0.007076983 -0.009811326 -0.0012736457 -0.018553928
000210 1c 80 e8 bc 77 ad 9b bb cd 6f 98 bc ba f1 f8 3c
       -0.0283814 -0.004750903 -0.018607998 0.030388702
000220 d3 9d ad 3c 80 78 67 bc 22 17 5e bc 90 77 00 bc
       0.02119342 -0.0141278505 -0.01355532 -0.007841006
000230 1a 91 32 bb 46 53 f5 bb aa 17 84 bb c5 77 70 bc
       -0.0027247132 -0.0074867336 -0.0040311413 -0.014676993
000240 d9 8d 47 bc 51 24 07 3c 82 4e 9b bb 2a b7 31 3d
       -0.012179815 0.008248405 -0.0047395835 0.04338757
000250 7e fe 90 b9 05 f0 64 bc ea c1 3f 3c 29 30 49 bc
       -0.00027655432 -0.013973241 0.011703948 -0.012279549
000260 86 d5 b1 3c d0 f2 52 bb c7 df 44 ba 27 04 3c bc
       0.021708261 -0.0032188185 -0.0007510152 -0.011475599
000270 73 62 ff ba 05 ef 97 3c 39 bf c3 3c e7 49 ee 3b
       -0.0019484296 0.01854659 0.023894893 0.0072719934
000280 ba 98 ae bc 46 f1 30 bc 6c 83 7d bc fb e0 35 3b
       -0.02131306 -0.010799712 -0.015473228 0.0027752507
000290 98 93 ef ba c3 b3 7f bc a4 c0 a3 ba 78 34 af 3c
       -0.0018278239 -0.015606823 -0.0012493324 0.021387324
0002a0 70 d4 0d ba 39 c0 a1 bc bd 83 92 bc 80 42 f8 bb
       -0.0005410379 -0.01974498 -0.017885083 -0.007576287
0002b0 a1 21 31 bc 7e 89 a3 3c 4c e4 46 3c d8 81 31 bc
       -0.01081124 0.019963022 0.012139391 -0.01083418
0002c0 a4 fd 7c 3c d1 09 27 3c 46 86 d3 3c d6 3f cf bb
       0.015441332 0.0101952115 0.025820863 -0.0063247485
0002d0 89 f0 52 bb be b1 63 bc 99 4a d3 bb 43 27 27 bb
       -0.0032186827 -0.0138973575 -0.0064481017 -0.002550558
0002e0 9b 9b b5 3c 1c f6 14 3c b8 8a 77 3c 73 4b 6c bb
       0.022168925 0.00909188 0.015108757 -0.0036055713
0002f0 6a 3c a9 bb 0d e0 a6 3b bd 78 77 3c 89 c9 94 3c
       -0.0051646726 0.005092627 0.01510447 0.018162506
000300 87 dd 8a bb cc b0 19 3c 25 c7 a0 bc 8c 8e 80 bc
       -0.004237834 0.009380531 -0.01962621 -0.015692972
000310 9e 86 3a bb 8f 3e 03 3d 4a 6d 5f 3c 35 4a ee bc
       -0.0028461586 0.032042082 0.013636896 -0.029088119
000320 d0 48 1a 3b 5f fc 34 bc f4 80 d5 3b 92 b7 1d 3c
       0.0023541935 -0.011046498 0.0065156166 0.009626286
000330 e5 02 8a bc 71 da 30 3b e6 a5 d5 b9 2f 0a 9d bc
       -0.016847083 0.002698567 -0.0004075013 -0.019169895
000340 01 11 7d 3c 0a c9 57 bb ee bb 90 bc 7c c4 78 bc
       0.015445949 -0.0032926225 -0.017667737 -0.015183564
000350 d9 3f 07 bc 20 e0 81 bb 25 8f cc ba 0f 1a 88 3b
       -0.008254969 -0.0039634854 -0.0015606625 0.004153497
000360 14 ce 00 bd 73 7a 10 bc 06 b3 e6 3c 0f 83 e4 3b
       -0.03144653 -0.008818257 0.028161537 0.006973631
000370 10 a6 7d 3c 99 2d 8a bb 43 94 a3 bb 7d 31 37 3c
       0.015481487 -0.0042168614 -0.0049920394 0.0111812325
000380 7b 5c e4 ba 1a 72 9d bc 69 08 47 b9 f8 ad e5 bb
       -0.0017422581 -0.019219447 -0.00018981252 -0.007009264
000390 7a c6 16 bc 5e d6 e9 bb 84 ce c5 3c a5 81 e7 3c
       -0.009202594 -0.0071361503 0.024146326 0.028260062
0003a0 91 d8 a4 bc 9c 19 e3 3b e6 87 80 bb fb 4d d5 bb
       -0.020122798 0.006930543 -0.0039224504 -0.00650954
0003b0 64 40 9e bb 38 02 c0 bc 20 c9 23 3a 50 a1 3e 3b
       -0.0048294533 -0.023438558 0.00062479265 0.002908785
0003c0 9c 46 47 bc 68 15 ec 3c 40 18 b7 3c 72 ef b0 ba
       -0.012162831 0.028818801 0.02235043 -0.0013499095
0003d0 64 c8 2c 3d ae 64 00 3c e7 68 00 ba d9 ff 0b 3d
       0.042183295 0.007836504 -0.0004898444 0.034179542
0003e0 c5 8c 35 3c 17 3b 2f 3d ee ac 38 bc fd a4 28 3b
       0.011080925 0.04278096 -0.011271698 0.0025733106
0003f0 61 6d 6e bc df 3c 04 bc f8 e3 95 bc 34 d7 ee 3b
       -0.014552445 -0.008071153 -0.01829718 0.007288838

network_body._body_endoder.seq_layers.0.weight f4 [256, 43]
000000 a5 a1 5b be 3b 7a 7d 3e c2 33 00 be a9 9e dd 3d
       -0.21448381 0.24753658 -0.12519744 0.10821278
000010 b0 5a fd 3d 84 3b f1 bd 39 b4 fd 3b 95 c3 4a 3e
       0.12370813 -0.1177893 0.0077424315 0.19801171
000020 24 46 15 3e 2c 32 05 3e 4c 27 67 3d 3f 2e b3 3d
       0.14577538 0.1300742 0.05643396 0.08749055
000030 ff d5 36 be 25 3f 18 3e bd 3c a4 3d 68 66 8d be
       -0.1785507 0.14867838 0.080193974 -0.27617192
000040 7b 94 99 bd cf 7f 7f bd 4b 76 84 bd ce 24 cf 3c
       -0.074990235 -0.062377747 -0.06467875 0.025286105
000050 68 52 9f be cc 16 77 bd e8 db 33 be 05 b9 7f 3d
       -0.31117558 -0.060324475 -0.17564356 0.062432308
000060 b0 99 3a 3e d8 b8 a6 3d e4 ba 8a be 3c f8 80 be
       0.1822269 0.08140725 -0.2709571 -0.25189388
000070 7f 4c 04 3e c8 f8 16 3e 5a 1a 29 be 98 23 17 be
       0.12919806 0.1474334 -0.16513959 -0.14759672
000080 50 1d ff 3d f1 7f 97 3d 3e f5 ae bd dc 87 51 bd
       0.12456763 0.0739745 -0.0854287 -0.051154956
000090 20 21 82 3e 6a d2 bc 3c 42 8f 81 be 8b 9a 0f be
       0.25415897 0.023049552 -0.2530461 -0.14023797
0000a0 ed 6a df 3d 61 9d f6 bd 93 a0 47 bd 57 ed 1a 3d
       0.10909066 -0.120417364 -0.04873712 0.037824
0000b0 91 e7 45 3c 2e d9 f2 bc e5 3f e5 bd 2d 88 96 3d
       0.0120791355 -0.029644575 -0.111938275 0.07350192
0000c0 3f 38 9c bd f9 45 e9 3e 47 0b ef 3d 75 bf 33 be
       -0.076279156 0.45561197 0.11672073 -0.17553504
0000d0 1f 1b bf 3d 9d 3e 6f 3e 36 40 0d be 9a 89 aa 3d
       0.09331345 0.23363729 -0.13794026 0.08327027
0000e0 30 b6 90 3e fe 6e 14 be 9e 2a ef 3d 05 ce d1 3d
       0.28263998 -0.14495465 0.116780505 0.10244373
0000f0 49 b5 10 3d 4d ec 31 3d fd 3a c1 be a9 91 bc bb
       0.035329137 0.043438245 -0.37740317 -0.0057546687
000100 da 67 04 be 86 9a 36 3e 12 d3 22 be fc 3a a7 bd
       -0.12930241 0.17832384 -0.1590083 -0.08165547
000110 74 e3 d6 3d 77 4c 57 3d cc 63 05 3e c2 b5 88 3d
       0.10492602 0.052563157 0.1302635 0.066752926
000120 9c cf 56 be ff 0c 4c 3e ca bb f7 3c 39 55 4d 3d
       -0.20977634 0.19926833 0.030240912 0.050130103
000130 5f 0c 1b 3e 2e 70 6d be 2c b1 12 ba be f9 8f 3c
       0.15141438 -0.23187324 -0.00055958587 0.017575141
000140 60 dc 30 3d 2b 85 8d bd 1f fb 7b 3c 8a 87 b1 bd
       0.043178916 -0.069101654 0.015379696 -0.0866843
000150 2b e5 45 be 7c d0 8f be b1 d3 8d 3d f3 0d ec bc
       -0.19325702 -0.28088748 0.069251426 -0.028815245
000160 5c e9 82 3e cc c3 cb bd 26 15 37 bd 22 d3 b5 bd
       0.25568664 -0.09949455 -0.044697903 -0.08878161
000170 37 31 e3 3e f4 75 47 bd d0 5c f9 bb 36 c9 d9 bc
       0.44373485 -0.048696473 -0.007609941 -0.026585203
000180 65 cc 12 3e c6 89 95 3e 30 5b 49 be 43 c3 30 3e
       0.14335783 0.29206675 -0.19663692 0.17261986
000190 7b ec 0a be 87 78 56 bb 52 d2 b3 be be 00 a1 3d
       -0.13566773 -0.0032725648 -0.351214 0.0786147
0001a0 a0 d8 ac 3e c7 5c dd bd 48 43 6c bd 9f 07 0a be
       0.33759022 -0.108087115 -0.057681352 -0.1347947
0001b0 69 05 2a 3e ad 4f 9a be 99 8c 1d be c2 db f4 3d
       0.16603626 -0.30138913 -0.15385665 0.11955978
0001c0 64 80 5c 3d e5 51 f0 3d 3c eb 8f be 71 ab 22 be
       0.05383338 0.1173437 -0.28109157 -0.15885712
0001d0 37 77 24 be 32 79 15 bd f2 f6 ed 3d ce e8 87 3d
       -0.16061102 -0.036492534 0.11619367 0.06636201
0001e0 24 f2 58 3e df f4 72 3d fc 0e af bd d0 b9 57 3d
       0.2118612 0.05931556 -0.0854778 0.05266744
0001f0 44 00 c0 bd 2a 69 07 be 7c 7c 99 bd bc 8e 5e be
       -0.09375051 -0.1322371 -0.07494447 -0.21734136
000200 8c be ad be b0 25 f0 be ec 57 91 be cf 51 a2 bd
       -0.33934438 -0.46903753 -0.28387392 -0.0792576
000210 68 57 70 bd 01 f4 a9 3d 47 ce e8 bd 37 4f 88 3c
       -0.058677107 0.08298493 -0.11367469 0.016639335
000220 f1 22 b0 3d 68 30 58 3e 42 74 d6 bc a5 2c 0b 3c
       0.086004145 0.21112216 -0.026178483 0.008494531
000230 6b 04 be bd c9 0a b5 bc 4d d9 55 3e b7 2a a7 be
       -0.092781864 -0.02209987 0.20883675 -0.32649776
000240 58 ea 95 be a0 15 23 3e 34 5a 62 be 9d d4 dc bd
       -0.29280353 0.15926218 -0.22104722 -0.1078274
000250 79 fd 2e 3e 54 13 0f be 7c 73 a0 bd 50 7c c3 bd
       0.1708888 -0.13972217 -0.07834527 -0.09545195
000260 28 d8 19 be 4f 25 d1 3d 7c 4f 30 3e 3b f2 21 3e
       -0.15023863 0.10212194 0.17217821 0.1581506
000270 01 29 68 3d 01 9b fa bd 99 6c 36 be 88 f9 32 3d
       0.05667973 -0.12236596 -0.17814864 0.043695003
000280 c6 62 f8 be 02 14 b3 bd 81 4b df 3d 48 a9 26 be
       -0.48512858 -0.087440506 0.10903073 -0.16275513
000290 4c ab 69 bc 87 4a 81 3e 81 22 c3 3d 08 5e 38 3e
       -0.014262032 0.25252172 0.095280655 0.1800462
0002a0 92 7d 29 bd de c9 8c 3d 58 77 36 bd 27 70 18 be
       -0.04137952 0.068744406 -0.04454741 -0.14886533
0002b0 30 1c 13 3d 6c b4 cd bd 51 ba d4 bd 98 63 81 bc
       0.035915554 -0.10044178 -0.103870995 -0.01579456
0002c0 cd c0 10 bd a8 fa 99 be 5d 94 dc bd 99 54 09 3a
       -0.03534012 -0.30074048 -0.107704856 0.0005238741
0002d0 51 3a d0 bc e1 8c d2 3d 15 f5 2b 3e e3 d5 aa 3e
       -0.025418432 0.10280777 0.1679271 0.33366308
0002e0 87 32 dc 3d eb c3 e5 3b c4 01 c8 3c 6a 02 b6 bd
       0.10751825 0.0070118806 0.024414904 -0.08887179
0002f0 e8 5c f4 bc 02 90 bc 3c 8c 59 d9 bb 08 d2 2a 3e
       -0.029829457 0.023017887 -0.0066329893 0.16681683
000300 37 04 46 be d7 12 24 be 17 f1 c6 3d c3 70 6f bc
       -0.19337545 -0.16022812 0.09713953 -0.014614287
000310 9b 1d 8f 3d bf 60 36 bd 3c e8 41 bd a7 ac 78 3d
       0.06988069 -0.044525858 -0.047340617 0.06071153
000320 04 ca 7a 3d cf d8 d4 bd 71 54 a3 bd 7a aa 29 3e
       0.061227813 -0.103929155 -0.0797509 0.16568938
000330 8d da 03 3e 58 21 05 3e e2 46 73 3e a2 04 15 be
       0.1287634 0.13001001 0.23757508 -0.14552549
000340 49 1c 89 bd 0f fc 45 be 3b a4 a7 bd 18 8b 5e 3d
       -0.06694848 -0.19334434 -0.08185621 0.05433187
000350 42 b9 5c bc 5c 77 86 3c 39 cc 6f 3e 55 19 34 3e
       -0.013471903 0.016414337 0.23417749 0.17587788
000360 39 37 31 bd 71 5b b4 3d ec cc c8 3d 9c c9 46 bd
       -0.043265555 0.088065036 0.09804711 -0.048532113
000370 86 3f a5 3d ce e6 cc 3e dc 1d 3d 3e 06 ee a1 be
       0.08068757 0.4001984 0.18468422 -0.3162691
000380 14 81 d8 3d ff ac 3b bd a6 1f 3b bd 83 28 08 be
       0.10571495 -0.04581928 -0.04568448 -0.13296704
000390 c0 2d 94 3d d4 3c 9d 3c 13 c1 88 be c9 94 1e bd
       0.072352886 0.019194044 -0.26709804 -0.03871611
0003a0 ae d6 6f be 4e 07 52 3d b2 f5 0c 3e 9e 8a 2a be
       -0.23421738 0.051276498 0.137656 -0.16654441
0003b0 38 ae 19 3d ce 58 e9 3d 62 aa 6b 3d 98 6a 37 3d
       0.037519664 0.11393891 0.057535537 0.04477939
0003c0 7c 51 a4 bd 16 0a 42 be 36 97 a0 3e 3d ad 85 bd
       -0.080233544 -0.1894916 0.31365365 -0.06527183
0003d0 ef 67 bd bd ad 41 9a 3d 06 9f dd 3d 12 51 65 3e
       -0.092483394 0.07532058 0.10821347 0.22394207
0003e0 bf 19 6a be ae a9 20 be 75 6d a2 bd 0d fd 60 3d
       -0.22861384 -0.15689728 -0.079310335 0.054928828
0003f0 34 4a af bd a0 cb 6a be 83 7d b8 be 0a 2d ea be
       -0.08559075 -0.2292924 -0.36033258 -0.45737487

network_body._body_endoder.seq_layers.2.bias f4 [256]
000000 38 85 59 bc d1 d5 11 3c 26 9f 3b bc b0 d5 88 bb
       -0.013276391 0.008901075 -0.011451518 -0.004175864
000010 4a ca fb 39 9b 42 f7 3b 53 ce ad bb 4b 98 40 3b
       0.00048025168 0.007545782 -0.005304137 0.0029387649
000020 1b 7e 8d ba b4 17 75 3a 76 39 b1 3b a4 28 6a 3a
       -0.0010795029 0.00093495403 0.005408461 0.00089324475
000030 b4 4b e2 ba b3 67 31 3c 21 a6 09 3b 5c dd 04 bc
       -0.0017264993 0.0108279465 0.0021003562 -0.008109417
000040 59 92 eb bb 2c e9 a5 ba 3c 3b d4 bb 98 d9 03 3c
       -0.007189077 -0.0012657992 -0.006476788 0.008047484
000050 31 76 fe 3a eb 2d c4 bb b7 84 10 38 fd 4b 04 bc
       0.0019413886 -0.005986919 3.4455876e-05 -0.008074758
000060 f8 78 36 3c 49 fb 26 3b 28 0c 95 bb a2 72 9a bb
       0.01113724 0.0025479367 -0.0045485683 -0.0047133723
000070 56 53 35 3b 7c e9 7e bb 18 34 7a 3b 79 c9 19 bc
       0.002766808 -0.0038896492 0.0038178023 -0.009386414
000080 bd 05 93 bb fb 7b 9f bb 7d b9 12 3c b4 cc 3e bc
       -0.004486768 -0.0048670745 0.008955357 -0.011645485
000090 28 53 ca ba 98 61 0c 38 b7 78 a4 ba 6e be a0 bb
       -0.001543616 3.3469492e-05 -0.0012548183 -0.0049055135
0000a0 14 ef 76 3c ef 02 2f ba 40 5b aa 3b 71 6b 12 3c
       0.015071649 -0.00066761574 0.005198866 0.008936749
0000b0 d4 29 a3 39 3a e2 b7 bb 18 46 86 3b 5d 0e 79 bb
       0.00031120947 -0.005611685 0.0040977113 -0.0038002946
0000c0 31 f5 09 bb b2 65 45 ba 32 a5 a3 b8 0b 93 15 bc
       -0.0021050686 -0.00075301074 -7.803216e-05 -0.009129296
0000d0 8e aa 20 3b 78 4c 48 bb 80 58 c9 3b 83 2e 42 bc
       0.002451572 -0.0030563157 0.006144583 -0.01185191
0000e0 03 f1 f2 3b bf 9d 1c bb cc 8e 90 bc 60 7b 6f 3b
       0.0074139847 -0.0023897735 -0.017646216 0.0036542043
0000f0 ec 99 fc 3b 1d 8d 39 bc 13 c5 d4 bb df 3e 80 3c
       0.0077087786 -0.011325148 -0.0064932196 0.01565498
000100 8c 75 bd bb 34 5a bd 39 72 87 17 bb 27 f5 23 3b
       -0.005781835 0.00036116096 -0.0023121503 0.0025017948
000110 5a 92 03 bc ca 09 6b 3a 2d 1b 44 3a c7 8b ec b9
       -0.008030498 0.0008965997 0.0007480856 -0.0004511757
000120 e4 e7 b8 3b f6 f1 b9 ba f3 41 90 3c 6e dc 05 bc
       0.005642878 -0.001418649 0.017609572 -0.00817023
000130 9d 3c 9b bb 6e 82 bc 3a 14 a3 a5 bb 02 a2 f3 bb
       -0.0047374503 0.0014382133 -0.005054841 -0.0074350843
000140 20 70 e1 3b 11 33 e0 bb 5c 27 00 bb 13 4c 2f bb
       0.0068798214 -0.006842025 -0.001955471 -0.0026748225
000150 85 75 0b bc de 68 55 ba 68 5b 24 bc a1 28 ca bb
       -0.008511906 -0.00081409316 -0.010031559 -0.006169394
000160 4d 9d 93 bb fc c0 7f 3c 59 06 19 3b 6f b0 58 bc
       -0.0045048357 0.015609976 0.002334973 -0.013225659
000170 e3 0e 64 bb 4f f8 bc 39 f3 46 83 bb 7b d2 30 bb
       -0.0034798912 0.0003604316 -0.0040062605 -0.0026980925
000180 73 b8 f3 39 8e 56 99 ba f1 b4 2d 3b 65 19 3a bb
       0.00046485997 -0.0011698769 0.0026505555 -0.0028396484
000190 57 a7 10 3b 9d 81 2a bc 12 da 13 3b 7b 30 ce 3a
       0.0022072399 -0.010406879 0.00225604 0.0015731001
0001a0 e4 c2 7f 3b f1 83 c9 bb 3b 2b c6 ba ce 22 fa 3a
       0.0039026076 -0.006149762 -0.0015119085 0.0019083859
0001b0 2b 49 0f bc af c1 22 bc 0a 65 66 bb d0 27 1e bc
       -0.008745472 -0.009933873 -0.0035155439 -0.009653047
0001c0 47 44 47 3b a5 2c 1e 3c 1b dd d8 ba 64 58 f2 ba
       0.0030405687 0.009654199 -0.0016545387 -0.0018489477
0001d0 3d 42 bf bb df 1a bf 3b 72 67 8c 3b b1 94 52 bc
       -0.0058367536 0.0058320607 0.0042847926 -0.012852834
0001e0 18 ca 01 bc 42 26 f8 3a 4e df 82 ba 7c 90 44 bb
       -0.007921718 0.00189323 -0.0009984763 -0.0029993346
0001f0 7a 5b 65 3c 01 69 99 bb 8a 1a cd bb c2 e5 3a bc
       0.0139988605 -0.004681707 -0.006259267 -0.011407318
000200 52 f7 63 bb e8 45 8a 36 43 2c 34 bb 6c 29 a5 3a
       -0.0034784866 4.1208586e-06 -0.0027492202 0.0012600846
000210 8b d8 3b 3c f7 c9 16 3b 6b cf 11 bb 69 dc 3b bc
       0.011465202 0.0023008564 -0.0022248875 -0.011466124
000220 1e 38 4f bc 60 7f 8b 3b b9 a2 6a 3b 9b 86 db bb
       -0.012647657 0.0042571276 0.0035802557 -0.006699396
000230 f9 01 cc bb f4 7f 2b 38 21 b6 85 3a d9 f2 09 bb
       -0.006225821 4.0888743e-05 0.0010201373 -0.002104929
000240 32 2e 86 bb c9 ed 83 bb 7e a9 15 3c 21 1a 0f bc
       -0.0040948624 -0.004026149 0.009134648 -0.008734257
000250 76 31 07 bc 9e 09 04 bc 17 92 47 3c e2 a2 3e bb
       -0.0082515385 -0.008058934 0.012180827 -0.0029088785
000260 7c 90 23 3c ce 8a a4 3b 4e 0e db bb 97 9d 23 bc
       0.009983178 0.0050214296 -0.006685055 -0.009986303
000270 bb 4c 29 38 7b 20 94 bb d1 06 4d 3c 23 d9 48 3a
       4.03642e-05 -0.0045204735 0.012513832 0.00076617504
000280 50 e0 0e bb cb 16 1a bb 3d 35 36 bc 74 32 5b 3c
       -0.002180118 -0.002351212 -0.011121091 0.013378728
000290 5d da 06 bc 93 ac ab 3a ce 1e a1 bb c0 e2 fb bb
       -0.008230773 0.0013097696 -0.0049170023 -0.007686943
0002a0 b7 81 a5 3a 8d b3 07 3c 7d 5c 1d bc 12 3e 3b 3c
       0.0012627159 0.008282554 -0.00960457 0.011428373
0002b0 0d c7 11 3b f3 5a 88 3b 7e e5 dc 3a 28 ea 55 bb
       0.0022243888 0.0041612326 0.0016853062 -0.0032640789
0002c0 ab af 81 3b ef 30 9d 3b cb 66 5d bc a5 0f 17 bb
       0.003957709 0.004797093 -0.013513277 -0.0023050096
0002d0 a7 73 9d 3b 2d 31 37 bc 77 ec 9e bb 9b 2a 61 bb
       0.0048050466 -0.011181158 -0.004849966 -0.003435767
0002e0 93 ac 01 bc 6f c8 4d 3b ec 5d 26 bb 53 18 fc ba
       -0.00791468 0.0031399985 -0.0025385572 -0.0019233323
0002f0 2f a1 6e bb 31 ba b0 ba f7 45 4c bc 8a 5d c4 3a
       -0.003641199 -0.0013483224 -0.012467853 0.001498149
000300 f9 f7 44 3b 65 5c 94 b7 cd 0d 0a bc a4 fe 1d bc
       0.003005503 -1.7686e-05 -0.008426142 -0.009643231
000310 5e 05 a7 bb 4b 1a e2 bb c5 5c 9f bb 80 03 ca 3c
       -0.0050970754 -0.006900107 -0.004863354 0.024659872
000320 28 6a 6e bc e1 a8 2a bb e3 31 18 bb 70 40 58 3b
       -0.014551677 -0.00260406 -0.0023223094 0.0032997392
000330 95 15 23 3c ef 1c 10 bc cb fc f3 bb 35 26 23 3c
       0.009953876 -0.008795961 -0.0074459068 0.00995784
000340 61 bf 42 bb ff f9 cd bb cc 25 b8 3b 2c f7 45 bc
       -0.0029716121 -0.0062859054 0.00561974 -0.012082856
000350 0c 82 3d b8 9a eb ca bb db db 7b bb 51 31 f1 bb
       -4.5182227e-05 -0.0061926367 -0.0038430605 -0.0073606153
000360 7c 46 93 bb 22 4c 3e bb 8f 60 e3 bb b8 90 5c 3a
       -0.0044944864 -0.0029037078 -0.006939001 0.0008413899
000370 e4 22 4a bb f9 69 71 bb a0 ee b7 3b 22 5a 04 bb
       -0.003084355 -0.0036836846 0.005613163 -0.0020195325
000380 41 97 93 3b 07 04 ba bb 47 5f e6 3b 30 6b 9f bb
       0.004504115 -0.0056767496 0.007030401 -0.0048650727
000390 bd 95 8f 3a 7f 51 ae 38 1d 28 0e bb 17 26 76 bb
       0.001095466 8.3121464e-05 -0.002169139 -0.0037559324
0003a0 f2 47 bc b9 40 10 73 bb a6 d6 be ba 3a 6b 34 bc
       -0.00035911758 -0.0037088543 -0.001455982 -0.011011893
0003b0 5e db be bb 21 54 0b 3c 48 2a ba 3b a3 69 84 ba
       -0.0058244905 0.008503945 0.00568131 -0.0010102283
0003c0 85 2d 31 3c 47 30 da b8 ff 1d ee ba f8 7c d4 3b
       0.010814075 -0.000104040424 -0.0018166899 0.006484624
0003d0 85 40 2f 3b 40 10 de bb a3 6c 93 bb 39 5a c9 3b
       0.0026741337 -0.0067768395 -0.0044990345 0.0061447886
0003e0 34 da b2 bb 50 17 42 bb da 18 3e 3c 52 46 fb 3a
       -0.0054581407 -0.0029615946 0.011602605 0.0019170737
0003f0 fb 41 f2 3b 41 b3 91 bb 9f e8 bc 3a c4 cb 2a bc
       0.0073931194 -0.0044464176 0.0014412588 -0.010424558

network_body._body_endoder.seq_layers.2.weight f4 [256, 256]
000000 08 5c a7 ba 12 fc 17 bd 62 26 6b 3d 10 8c 10 be
       -0.0012768516 -0.037105627 0.05740965 -0.1411593
000010 30 78 05 bd dd 53 55 3b 65 9f b4 3c fd b1 19 bc
       -0.032585323 0.0032551207 0.022048661 -0.009380815
000020 e5 fb b4 bc fb 49 fb bd 47 c4 7b bd 84 1e ec 3d
       -0.022092769 -0.1226997 -0.06146648 0.11529258
000030 12 18 19 3d 54 3d 48 3e ce 03 4a bd b7 7f 06 bc
       0.03737647 0.19554645 -0.049320035 -0.0082091605
000040 ed 3a 9e 3d d9 cd 91 3d fc ec 52 3c ba 00 3d bd
       0.07726083 0.071193404 0.012873884 -0.04614327
000050 ad 97 59 3d 6e 0f 02 3d dd f3 37 3d b9 14 05 3b
       0.053123165 0.031752996 0.0449103 0.002030654
000060 23 13 49 bd 39 1b bd 3c 90 94 0f bd a1 2a 33 3d
       -0.049090516 0.02308427 -0.03505379 0.043741826
000070 4c c2 86 3d 1d b4 08 bd 25 ae 1d bd dc a6 24 3c
       0.06580028 -0.033374894 -0.038496155 0.010049548
000080 ea c6 b1 3d ea 43 c0 bd 64 06 e7 bd fc 0c ce bb
       0.08680518 -0.093879536 -0.11280516 -0.006288169
000090 ef 94 25 bd 6f 50 a9 3d c3 85 4f 3d 13 1c e3 bd
       -0.040425237 0.082672946 0.050664674 -0.11089339
0000a0 4b 7a b2 bc 91 c8 e0 3c 9d 94 d0 bb 87 a1 98 3c
       -0.02178683 0.027439388 -0.0063653723 0.01863171
0000b0 91 f6 40 3d f0 a0 d4 3d e9 0b de bb b6 a0 fc ba
       0.047110144 0.10382259 -0.006776322 -0.001927397
0000c0 a3 d0 e8 bc 9a d9 2e be 82 c8 1f 3e 56 30 c1 3d
       -0.028419798 -0.17075196 0.15603831 0.094330475
0000d0 8f 4f 0f bd 75 7b 05 be 1e 59 bb bc f8 f4 88 bc
       -0.034987982 -0.13035376 -0.022869643 -0.016718373
0000e0 3f d4 dd 3c 3c ec 91 bd d6 46 85 bd 45 38 ee bd
       0.027078746 -0.07125136 -0.065076515 -0.11631826
0000f0 f0 5d 0a bd f1 56 7e bd 97 4e 3e 3b db 17 7a 3c
       -0.033780992 -0.062094633 0.0029038542 0.015264477
000100 0d 59 03 3d 22 17 a5 3d e0 6e 1f bd 92 36 72 3c
       0.032067347 0.08061053 -0.038924098 0.014783518
000110 bf 7c 62 bc 1a 48 ff 3c 75 15 88 3d 5a 39 07 bd
       -0.013823687 0.03116231 0.066447176 -0.03301368
000120 72 f6 a2 bd 8a 23 32 3d e9 54 a8 3d 38 68 a9 bd
       -0.07957162 0.043490924 0.0821932 -0.08271831
000130 15 90 8b bd af 3a e5 bd e8 41 aa bd 0b e5 52 bd
       -0.06814591 -0.11192834 -0.08313352 -0.051487964
000140 02 5c 05 3a 2a b8 e3 bb 4e b8 b9 3a 24 da 22 bd
       0.00050872576 -0.0069494443 0.0014169307 -0.039758816
000150 ba d6 a7 3d 76 b9 68 3d e1 7b c7 3b d4 e1 6b bd
       0.08195253 0.056817494 0.0060877656 -0.057588413
000160 92 5c 6e 3d f5 b3 a6 bc 49 05 80 3c 9a 99 e0 3d
       0.05819375 -0.020349482 0.01562752 0.10966797
000170 77 f1 e7 3d c1 90 27 3d df 20 56 3c 1b 65 01 bd
       0.11325353 0.040909532 0.0130693605 -0.031590562
000180 01 0e 20 3d 3c f2 e7 3c f5 55 27 3b 7d ec ef 3d
       0.039075855 0.028313749 0.0025533412 0.117150284
000190 57 7a 89 3d 4b 93 c1 bb 51 cb 0a bd 20 9d a9 3c
       0.067127876 -0.0059074513 -0.033885304 0.020704806
0001a0 5d e4 e1 bd d6 64 0d 3d 0d 7f f4 bc 40 c8 03 be
       -0.11029885 0.034519993 -0.029845739 -0.12869358
0001b0 ee a5 bc bd 80 2c 19 bd 84 a8 2c bd 7b ef 8e bd
       -0.09211336 -0.037395954 -0.042152897 -0.06979271
0001c0 b7 63 53 bd 2d b7 cf bc 27 c9 14 bc b4 41 40 3d
       -0.051608767 -0.0253559 -0.009081162 0.04693766
0001d0 eb 30 9d bc f8 0a 3c 3e 67 12 af bb bf 0e 37 bd
       -0.019188365 0.18363559 -0.00534277 -0.044691797
0001e0 64 d5 64 bd 49 aa e1 bc 08 e4 ef 3c d8 6e bf bd
       -0.055867568 -0.027547019 0.029283538 -0.09347314
0001f0 5c f2 a1 3a 61 1f 35 3d 00 c8 a3 3d 78 1c 19 3d
       0.0012355554 0.04421938 0.07997131 0.037380666
000200 36 02 aa bd 9b e4 02 3e 2f a3 a3 3d 4b 99 91 3c
       -0.08301203 0.12782519 0.07990109 0.017773291
000210 97 3c c9 3c d3 e9 32 bd 0a 40 1e bc 44 39 88 3d
       0.024565024 -0.043680023 -0.009658823 0.066515476
000220 74 7c ea bd 51 d2 86 bd 48 1a 58 bd fd e3 00 3d
       -0.11449519 -0.065830834 -0.05275944 0.031467427
000230 63 84 41 bd 7c 0e c0 3c 61 12 98 3c d6 b1 32 3c
       -0.047245394 0.023444407 0.018563451 0.010906657
000240 59 ae bd bc 57 b8 b7 3c 95 9e d0 bd eb cc d8 3b
       -0.023154425 0.022426767 -0.10186497 0.006616225
000250 5c 8e e8 bd d2 ba 9a 3c 2d 3a 73 bd f9 70 ae 3c
       -0.11355278 0.018887911 -0.059381653 0.021294104
000260 3a d8 49 bc 00 d9 98 b8 19 1e c0 bb 49 3e 41 3c
       -0.012319619 -7.288344e-05 -0.005862963 0.011794635
000270 7b 59 c5 bd 5d 3d 98 bd 40 4d 83 bd b1 ae 7c 3d
       -0.09636208 -0.07433579 -0.06411219 0.061690036
000280 4b 9b 2a bd 0b 0e 7e bd 00 68 50 bc e5 af 91 3d
       -0.041652005 -0.06202511 -0.012720108 0.07113627
000290 a7 ca 93 3d 09 12 06 bd a4 d0 7d bc 8a 77 b9 3d
       0.07216387 -0.032732043 -0.015491638 0.090560034
0002a0 c5 66 3e bb 34 41 6a bc 18 a4 b3 3d d6 8d fa 3d
       -0.0029052955 -0.014297772 0.08771533 0.12234084
0002b0 82 80 21 3e 0e 8a 4e bb 7c 92 28 be eb a8 31 bb
       0.15771678 -0.0031515392 -0.1646213 -0.002710874
0002c0 fc 5e 3c bd e2 4b 97 3b d3 fb 1f 3d 46 7a c7 3c
       -0.04598902 0.0046172002 0.039058518 0.024350297
0002d0 f8 d4 5e 3d 2c 61 1c 3d 19 fe 8f bd e3 d1 23 bc
       0.05440232 0.038178608 -0.07030887 -0.009998771
0002e0 a0 9b e2 3c 8a 9e 1c be 86 d4 c1 3c 5f 1e 52 bd
       0.027662098 -0.15294853 0.02366091 -0.051298495
0002f0 82 5e db 3b 5f 36 cd 3c 10 5d ab 3d 77 f1 38 bd
       0.006694616 0.02505034 0.0836736 -0.045152154
000300 01 f3 8e 3d 93 50 63 bc 7f 53 8e bc 51 e0 bf bc
       0.06979943 -0.013874191 -0.017373798 -0.023422392
000310 ac 74 53 bd 4c 78 1a bd 21 15 ef bd 8b db bb 39
       -0.05162494 -0.03771238 -0.11673952 0.00035830992
000320 02 67 c8 bd a7 b1 06 3d c7 5c 6f bd 7f 56 38 bd
       -0.09785272 0.032884266 -0.05843809 -0.045004364
000330 ec 41 07 bd b5 31 14 be 43 d0 ae bc 6b ad b9 3c
       -0.033021852 -0.14472087 -0.021339541 0.0226657
000340 eb d7 c2 3c 39 fe a4 bc 19 73 cd 3c fb bd b3 bc
       0.023784598 -0.020140754 0.025079297 -0.021941176
000350 43 be d8 3d 44 f1 f6 3c 7b e8 d2 bd 70 66 87 bc
       0.105831645 0.030144341 -0.102982484 -0.016528338
000360 c2 c0 42 3d 7c f8 2b bd f7 20 83 bd c6 2c 94 3c
       0.04754711 -0.04198502 -0.06402772 0.018087756
000370 86 c2 37 bc 1e b3 2e 3d 3d 4b 5a bd b8 53 65 3c
       -0.011215812 0.04265129 -0.05329441 0.013997011
000380 f9 d0 e8 bc 5b 3d 41 3d 63 d0 24 bd 9b a4 76 3a
       -0.028419958 0.047177654 -0.040237796 0.00094086834
000390 80 35 da bd ad d7 98 3d 90 73 56 bb 8d 61 f7 3c
       -0.106547356 0.07463012 -0.003272269 0.030197883
0003a0 52 4c 8d bc d2 25 91 3d f8 eb c6 bb 3d cd a9 bc
       -0.017248306 0.07087292 -0.00607061 -0.020727748
0003b0 72 62 82 bd e5 a6 c0 bc fe 16 a7 bd 52 e2 0d 3d
       -0.06366433 -0.023517082 -0.08158682 0.034639664
0003c0 5e 7e 30 bd ac db 3e 3d 82 18 a4 bc a9 db ae bc
       -0.043089263 0.046596214 -0.020031217 -0.021344976
0003d0 f1 1e 4a 3d 7d 91 45 bd 47 87 02 3e ca d4 79 3c
       0.049345914 -0.04823445 0.12746917 0.015248487
0003e0 c6 23 15 3e dd fc 8c bc 7b 51 c8 3c 62 a6 89 3d
       0.14564428 -0.017210418 0.024452915 0.06721188
0003f0 d0 d6 27 3d a9 93 12 be 42 1a 0f 3d a5 20 b4 3d
       0.040976346 -0.1431414 0.03493715 0.08795289
