GameBreaker/NNModels/lv2_gb-icm.onnx (onnx, 316421 bytes, 9 tensors)

action_model._discrete_distribution.branches.0.bias f4 [2]
-0.010108396 0.010108396
00000000: b09d 25bc b09d 253c

action_model._discrete_distribution.branches.0.weight f4 [2, 256]
-0.019892935 -0.016828172 0.025950454 -0.0048570377 -0.010088115 -0.011938535 -0.04131706 0.015685292
0.009741935 -0.022820937 -0.059792846 0.046965014 -0.045351386 -0.024647137 -0.017275646 -0.06704618
-0.0071345884 -0.009631166 -0.039428554 -0.027817054 -0.037263278 -0.030639483 0.046104778 -0.00094389525
-0.0134002315 0.012771456 -0.024221284 -0.016052864 0.028930686 0.006134149 -0.00806327 -0.05580572
-0.047053505 0.015901431 0.03447267 -0.016166504 -0.018905988 -0.025984148 -0.001389418 0.014721709
0.0005878953 -0.010060723 -0.009196835 -0.022842571 -0.062431052 0.022451172 -0.0094211195 -0.026370242
-0.0051816087 0.0052538468 -0.008851349 -0.050273262 0.04845239 -0.011139686 0.0074641504 -0.046569988
0.015207264 -0.0005322663 -0.00059808895 0.0035083669 -0.055263568 -0.010906816 0.0035573523 -0.044849765
-0.016530884 -0.0419075 -0.07138097 -0.024035573 -0.022353152 0.0051509547 -0.0056748954 0.0154158315
-0.018863292 0.011120144 -0.0050211223 -0.029551096 0.0052987356 0.008242875 -0.048267204 0.028249023
0.0015838506 -0.029001346 0.0029204781 0.0057767713 -0.01842438 -0.015320942 0.0066088657 -0.051831283
-0.04243831 -0.026261522 -0.03234565 -0.03799611 -0.05286279 0.041834164 0.012424231 0.0093986085
0.01008522 0.002335351 0.0020131154 -0.036564894 0.029452547 -0.0035862825 -0.0585955 -0.009535369
-0.019884665 -0.059597485 0.039241463 -0.005007557 -0.0332707 0.0024588823 0.009509901 0.0157455
0.001984642 -0.02408086 0.010303908 -0.024000244 0.02398266 0.04415609 0.015729133 0.0040566395
0.012822427 0.005966163 -0.0015782404 -0.0034619037 0.035245042 -0.010803699 0.0054930854 0.020156749
0.011388803 -0.011032182 0.0038797196 0.0005274371 0.0050036022 0.004848385 -0.038613293 0.008635101
-0.0009368229 -0.018573996 -0.016879503 0.028230533 -0.0074607586 -0.0027047684 -0.030283544 -0.0031278
0.015805814 -0.107255034 -0.033260938 -0.033048518 0.045609582 0.038022973 -0.050399303 -0.028607136
-0.0012677567 -0.056159995 -0.0027228992 -0.019677183 -0.07079437 0.010584509 -0.014678189 -0.042091854
-0.052458268 -0.009939488 -0.0040420755 -0.0003967889 -0.042535685 -0.015968645 0.021367626 0.030486858
0.041864928 0.0150595475 0.0146094505 0.006783899 -0.024324233 0.017243387 -0.006947185 -0.055173464
0.007833796 0.0024793544 0.014145453 0.0068175923 -0.04709839 0.0019745547 -0.010357998 0.012707
0.0059140758 0.023992306 -0.03735029 -0.022466965 0.028489823 -0.03910772 -0.015498443 -0.021782234
-0.021335963 -0.0025949003 0.021988641 -0.0115296375 -0.0012091541 0.012950061 0.016588595 -0.010030188
0.016785504 0.017206587 -0.02044051 -0.04985873 -0.034208603 0.00040455436 0.02793025 -0.024893815
-0.03866307 -0.0010221498 0.020461876 -0.00071917934 -0.0026791666 -0.0044640014 -0.012190791 0.033272233
-0.023484569 -0.030239902 -0.07322596 -0.028158428 -0.023751179 -0.036447603 0.0078016575 0.002203252
0.010419639 0.008929499 0.016937194 -0.02894895 -0.011067758 -0.007540211 -0.036659677 -0.02630661
0.009942515 -0.0077689867 0.008050855 -0.036054324 -0.035339277 -0.024633624 -0.010076805 -0.01367158
0.021905836 -0.010250998 -0.008659368 -0.0028393064 -0.015553939 -0.025430087 0.0044849636 -0.0005320908
-0.043316185 -0.0034662643 -0.022496665 0.05428231 -0.0118489 -0.045355547 -0.07726341 -0.0035446938
00000000: 82f6 a2bc 3cdb 89bc 0c96 d43c c927 9fbb
00000010: 9f48 25bc d899 43bc 143c 29bd 717e 803c
00000020: a39c 1f3c f9f2 babc 58e9 74bd 635e 403d
00000030: 60c2 39bd cbe8 c9bc a885 8dbc 824f 89bd
00000040: 44c9 e9bb 0acc 1dbc d67f 21bd 97e0 e3bc
00000050: 61a1 18bd a7ff fabc 5dd8 3c3d bd6f 77ba
00000060: a58c 5bbc 5e3f 513c b76b c6bc 4c81 83bc
00000070: 0c00 ed3c f900 c93b ce1b 04bc 8a94 64bd
00000080: 2dbb 40bd b843 823c 3733 0d3d 9e6f 84bc
00000090: bbe0 9abc b5dc d4bc 221d b6ba 5333 713c
000000a0: fc1c 1a3a bbd5 24bc 52ae 16bc 5820 bbbc
000000b0: b4b7 7fbd 85eb b73c 0a5b 1abc 6806 d8bc
000000c0: 7cca a9bb 7628 ac3b 4005 11bc 56eb 4dbd
000000d0: 0376 463d 3b83 36bc d595 f43b 2cc0 3ebd
000000e0: e327 793c c987 0bba 12c9 1cba a1ec 653b
000000f0: 0d5c 62bd 81b2 32bc 7822 693b 63b4 37bd
00000100: c76b 87bc 33a7 2bbd 3030 92bd 40e6 c4bc
00000110: f51d b7bc 57c9 a83b 79f4 b9bb af92 7c3c
00000120: 3187 9abc 4431 363c 3a88 a4bb 2415 f2bc
00000130: 04a1 ad3b 200d 073c d5b3 45bd 7f6a e73c
00000140: 3599 cf3a 3b94 edbc 7e65 3f3b 124b bd3b
00000150: baee 96bc b004 7bbc 2f8f d83b 0a4d 54bd
00000160: cbd3 2dbd 6722 d7bc df7c 04bd cfa1 1bbd
00000170: a786 58bd 4d5a 2b3d 008f 4b3c 9ffc 193c
00000180: 7b3c 253c b00c 193b 79ee 033b 12c5 15bd
00000190: 7846 f13c d607 6bbb d601 70bd 3d3a 1cbc
000001a0: 2ae5 a2bc 7e1c 74bd a8bb 203d 6f16 a4bb
000001b0: dc46 08bd 3325 213b 6acf 1b3c b5fc 803c
000001c0: c410 023b 3945 c5bc b9d1 283c 299c c4bc
000001d0: 4977 c43c 04dd 343d 62da 803c 8fed 843b
000001e0: 2815 523c cd7f c33b f6dc ceba 1be1 62bb
000001f0: 1b5d 103d ff01 31bc 57ff b33b c41f a53c
00000200: 1a98 3a3c 53c0 34bc e542 7e3b b443 0a3a
00000210: 42f5 a33b 34df 9e3b f928 1ebd 3d7a 0d3c
00000220: 1f95 75ba 7e28 98bc e246 8abc b843 e73c
00000230: 6179 f4bb 7c42 31bb 3215 f8bc c7fb 4cbb
00000240: 327b 813c 87a8 dbbd 9f3c 08bd e25d 07bd
00000250: 1dd1 3a3d fabd 1b3d 806f 4ebd 8359 eabc
00000260: db2a a6ba 0608 66bd ab72 32bb 0b32 a1bc
00000270: a3fc 90bd a66a 2d3c c97c 70bc 8268 2cbd
00000280: 7bde 56bd 3cd9 22bc 6373 84bb 1b08 d0b9
00000290: e639 2ebd add0 82bc 290b af3c 93bf f93c
000002a0: 8f7a 2b3d 52bc 763c 7a5c 6f3c 784b de3b
000002b0: 9d43 c7bc 0142 8d3c 36a5 e3bb 92fd 61bd
000002c0: 5259 003c aa7c 223b 55c2 673c 1c66 df3b
000002d0: 3eea 40bd 8867 013b 98b4 29bc 0531 503c
000002e0: ddca c13b 838b c43c 9efc 18bd a40c b8bc
000002f0: 7d63 e93c 6b2f 20bd 2eed 7dbc a870 b2bc
00000300: c2c8 aebc 340f 2abb 8621 b43c cee6 3cbc
00000310: 7b7c 9eba 7e2c 543c cee4 873c a855 24bc
00000320: c181 893c d4f4 8c3c db72 a7bc ab38 4cbd
00000330: 521e 0cbd 5e1a d439 fbcd e43c 1dee cbbc
00000340: 2b5d 1ebd a8f9 85ba aa9f a73c 4f87 3cba
00000350: f594 2fbb c246 92bb e2bb 47bc 7748 083d
00000360: b662 c0bc acb9 f7bc 7ef7 95bd 81ac e6bc
00000370: d591 c2bc 154a 15bd 0ca5 ff3b 6f64 103b
00000380: 22b7 2a3c 094d 123c dfbf 8a3c 5926 edbc
00000390: 8b55 35bc e013 f7bb 7528 16bd f680 d7bc
000003a0: eee5 223c fc92 febb bce7 033c b3ad 13bd
000003b0: ebbf 10bd 74cc c9bc 2f19 25bc c3fe 5fbc
000003c0: de73 b33c cdf3 27bc 06e0 0dbc a813 3abb
000003d0: f3d5 7ebc c252 d0bc 9af6 923b 027c 0bba
000003e0: 506c 31bd 442a 63bb ed4a b8bc 2157 5e3d
000003f0: e321 42bc bdc6 39bd 473c 9ebd 184e 68bb

action_model._discrete_distribution.branches.1.bias f4 [3]
-0.024177842 0.009416661 0.010267617
00000000: 9c10 c6bc 5748 1a3c 8239 283c

action_model._discrete_distribution.branches.1.weight f4 [3, 256]
0.047455076 -0.013614502 -0.009351286 0.04983227 0.035638224 0.004786223 0.025415996 0.019854581
-0.021682894 0.029812437 0.010213091 -0.023580987 0.007688141 -0.016782774 -0.026119802 0.072106384
0.019244272 -0.031499457 -0.018785553 -0.012526902 0.077283315 0.007980293 -0.023073614 0.025242979
0.009113061 0.013606834 0.05949658 -0.0018553736 -0.021125382 -0.03398305 0.04040379 0.06793763
-0.047517322 -0.023452528 0.01219919 0.00040575291 -0.030553961 0.013527412 -0.014658711 0.009166734
-0.0029884535 0.032736592 0.03314065 -0.0098186275 -0.025119713 -0.015409026 -0.0025298866 0.057451885
0.00076107035 0.026813725 -0.023692446 0.006702049 -0.016351745 -0.03593103 0.011738354 0.026920317
0.027312927 0.01950097 0.006988261 -0.001238733 0.007283587 -0.040582582 0.015790481 -0.0026951584
0.07926435 0.010042816 0.07951195 0.006526877 0.06507078 0.03500962 -0.017131794 0.018050974
0.002078119 -0.021424117 -0.008751051 0.075040884 0.011762083 -0.005738942 0.042485237 -0.028183289
0.006425924 0.056026276 0.0038477343 0.014070222 -0.009046594 0.016457973 -0.018364329 0.0039543137
0.04468177 -0.0051669017 0.055505928 0.076244175 0.0055631096 0.00868805 -0.02241568 -0.007434093
0.0067920536 -0.007202024 0.014852464 0.071860455 0.014931396 -0.004951443 0.028074805 -0.012618713
0.03732215 0.08532051 0.005507636 0.039205946 -0.017461477 0.015257815 -0.008957562 -0.02091119
-0.009642552 -0.0073180553 0.0028332113 -0.007865494 0.020841712 -0.01130301 0.0067397966 0.026516175
0.0020683038 -0.00343956 0.048233345 -0.0013836267 -0.021356143 0.0347421 -0.0054923194 -0.01606167
0.0036224944 0.028685138 -0.036385104 -0.03874345 0.026946276 0.050319146 -0.030445363 -0.025935672
0.022305291 0.03901969 -0.015818205 0.0011345434 0.049870785 -0.0055557345 -0.019121652 -0.014581061
0.023058195 0.003397069 -0.015845796 0.030560942 -0.003534682 -0.06827791 0.0042285374 -0.027937539
0.01894158 0.013338494 0.031991385 -0.010309683 0.012771898 0.0061851647 -0.013701281 0.073004946
0.015683165 0.023084756 -0.016432723 0.0073734447 0.0122976955 0.057987384 0.013339751 -0.023867836
-0.019260438 -0.011593374 0.010407141 0.010844325 0.027570456 0.011178564 0.039420914 -0.0029275203
4.7695357e-06 -0.008248459 0.019547066 0.020557072 0.0018566812 0.0159496 -0.024604747 -0.007756571
0.023390181 0.010610418 0.046734415 0.051788643 -0.007609639 -0.0047926274 0.0005963773 0.077638604
0.054781023 -0.012186737 0.02918303 -0.032785017 -0.008104628 -0.02444563 0.01178054 -0.00092421775
-0.026345447 0.011286846 0.057200935 0.019914953 0.065078534 -0.011694957 -0.0012543374 0.064001665
0.008111686 -0.013813854 0.0123749925 -0.039596155 0.031490486 0.03930055 0.07836949 -0.021420542
-0.027481446 0.029712021 -0.013163786 0.06279454 -0.021183563 -0.006431214 0.032662153 -0.029201176
0.0041146823 -0.043502614 -0.01178496 -0.029155165 0.003567218 -0.0051920996 -0.016583826 0.06907588
-0.002367993 0.044529464 -0.0062547405 0.055979863 -0.037930436 -0.030576061 0.0018038902 0.02404108
-0.0058568385 -0.025764171 0.029334871 0.029706683 0.008334808 0.020092651 0.022032842 0.019924125
-0.011746994 0.033709545 -0.014671835 -0.008111258 0.019744502 0.03293637 0.021924848 0.020464784
00000000: 4160 423d 5c0f 5fbc 2336 19bc ec1c 4c3d
00000010: 63f9 113d c0d5 9c3b 3535 d03c 13a6 a23c
00000020: 53a0 b1bc 3639 f43c cf54 273c ea2c c1bc
00000030: cdec fb3b 077c 89bc 32f9 d5bc 83ac 933d
00000040: 2aa6 9d3c 9305 01bd 29e4 99bc a33d 4dbc
00000050: b746 9e3d c6bf 023c e004 bdbc 5dca ce3c
00000060: f34e 153c 33ef 5e3c b0b2 733d 0230 f3ba
00000070: 230f adbc d031 0bbd 727e 253d e222 8b3d
00000080: 86a1 42bd 841f c0bc 1ddf 473c 3cbb d439
00000090: 4d4c fabc 14a2 5d3c 172b 70bc 1230 163c
000000a0: eed9 43bb ce16 063d 7dbe 073d 4fde 20bc
000000b0: dbc7 cdbc 2476 7cbc 74cc 25bb ab52 6b3d
000000c0: 9182 473a 75a8 db3c a916 c2bc dd9c db3b
000000d0: 18f4 85bc 6a2c 13bd 3a52 403c ff87 dc3c
000000e0: 5cbf df3c 80c0 9f3c c8fd e43b fb5c a2ba
000000f0: 28ab ee3b ec39 26bd 0a5b 813c 41a1 30bb
00000100: 5955 a23d a08a 243c 29d7 a23d 6adf d53b
00000110: d443 853d 3f66 0f3d fa57 8cbc a3df 933c
00000120: 0d31 083b a181 afbc 9160 0fbc 09af 993d
00000130: c0b5 403c bc0d bcbb 0005 2e3d a4e0 e6bc
00000140: 8f90 d23b cf7b 653d 452a 7c3b ca86 663c
00000150: 2a38 14bc dfd2 863c ca70 96bc 3093 813b
00000160: 3b04 373d 1d4f a9bb 2f5a 633d e825 9c3d
00000170: bf4a b63b 5358 0e3c 17a1 b7bc b199 f3bb
00000180: e08f de3b f5fe ebbb c057 733c 932b 933d
00000190: d0a2 743c b73f a2bb 22fd e53c b8be 4ebc
000001a0: 1cdf 183d 85bc ae3d 6679 b43b 6a96 203d
000001b0: 5f0b 8fbc eafb 793c bdc2 12bc f24d abbc
000001c0: cbfb 1dbc 4ccc efbb 66ad 393b 46de 00bc
000001d0: 3dbc aa3c 4330 39bc 83d9 dc3b 7338 d93c
000001e0: 618c 073b 3e6a 61bb 5490 453d cf5a b5ba
000001f0: 14f3 aebc bb4d 0e3d eaf8 b3bb c393 83bc
00000200: 5f67 6d3b 18fd ea3c 8c08 15bd 74b1 1ebd
00000210: 70be dc3c 731b 4e3d 8e68 f9bc 0c77 d4bc
00000220: 96b9 b63c 1cd3 1f3d 2e95 81bc f6b4 943a
00000230: 4f45 4c3d e10c b6bb 03a5 9cbc 67e5 6ebc
00000240: 8ae4 bc3c 5ca1 5e3b 0bcf 81bc f15a fa3c
00000250: 20a6 67bb 4ad5 8bbd 8b8f 8a3b 44dd e4bc
00000260: 5f2b 9b3c b389 5a3c 6609 033d f2e9 28bc
00000270: 3941 513c ecac ca3b 567b 60bc 9e83 953d
00000280: fb79 803c 3e1c bd3c eb9d 86bc f09c f13b
00000290: 467c 493c 2e84 6d3d f98e 5a3c 7b86 c3bc
000002a0: 11c8 9dbc 23f2 3dbc b782 2a3c 65ac 313c
000002b0: 70db e13c 4c26 373c d377 213d a4db 3fbb
000002c0: 000a a036 8b24 07bc 2b21 a03c 4e67 a83c
000002d0: e25b f33a bca8 823c e58f c9bc d52a febb
000002e0: c49c bf3c 52d7 2d3c 966c 3f3d 5420 543d
000002f0: 475a f9bb 790b 9dbb 3456 1c3a fd00 9f3d
00000300: 1162 603d e1aa 47bc 4011 ef3c 9549 06bd
00000310: 46c9 04bc 3442 c8bc 2b03 413c 3447 72ba
00000320: 68d2 d7bc 77ec 383c 874b 6a3d af24 a33c
00000330: e547 853d 349c 3fbc 9468 a4ba 4e13 833d
00000340: e1e6 043c 8153 62bc 7bc0 4a3c 942f 22bd
00000350: 2bfc 003d 9df9 203d 2f80 a03d 227a afbc
00000360: c520 e1bc a066 f33c ecac 57bc 6c9a 803d
00000370: 2789 adbc efbc d2bb c0c8 053d 4e37 efbc
00000380: 75d4 863b cc2f 32bd b415 41bc d0d6 eebc
00000390: fdc7 693b 7d22 aabb ceda 87bc a877 8d3d
000003a0: 5430 1bbb 8764 363d 91f4 ccbb 244b 653d
000003b0: f25c 1bbd a67a fabc 8370 ec3a cdf1 c43c
000003c0: b9ea bfbb 620f d3bc af4f f03c 6e5b f33c
000003d0: b88e 083c 5899 a43c 387e b43c eb37 a33c
000003e0: 7776 40bc 0513 0a3d 2362 70bc 15e5 04bc
000003f0: 39bf a13c 49e8 063d bd9b b33c c3a5 a73c

discrete_action_output_shape f4 [1, 2]
2.0 3.0
00000000: 0000 0040 0000 4040

network_body._body_endoder.seq_layers.0.bias f4 [256]
-0.04505849 0.007792171 -0.03960956 0.021711906 -0.022337804 -0.027173627 -0.02573164 -0.015105578
-0.01654943 0.007182609 -0.021091033 -0.014745173 0.015252757 -0.0014349619 -0.00972877 0.018603884
-0.009988928 -0.026322115 0.07851311 -0.034492753 0.018898832 -0.011397204 0.024580948 0.0071394816
0.021660887 -0.020828316 0.022928515 -0.021236716 0.004957758 -0.014052476 -0.021647064 -0.036757015
0.027618168 -0.021838486 -0.06699814 -0.05185849 -0.021863854 -0.022578975 -0.0055237645 0.014294428
-0.0018722407 -0.005718816 0.06378309 -0.012547113 -0.017888544 0.0028490806 0.0102049215 -0.03353202
-0.047104325 -0.027370756 -0.0024104095 -0.023367682 -0.02912831 -0.030229067 -0.003255975 -0.052873626
0.047811307 0.026337065 -0.008436341 -0.00737775 0.0033485221 0.07156592 0.008856008 0.025218345
-0.031766124 0.0038349263 0.036425926 0.009715028 0.040247183 -0.017654074 0.012765124 -0.010628087
0.029099768 0.002965041 -0.004045121 0.0026992408 0.014765837 -0.024703402 -0.0012603377 0.030551968
0.024782013 0.005824029 0.011539341 -0.040953748 -0.007529458 0.047567103 0.023463465 -0.0055907066
-0.013122842 0.03741437 -0.040605634 -0.027492717 0.015208292 0.0039869896 0.0025808287 0.016298337
-0.012521554 -0.026940051 -0.0057139145 0.016486501 -0.0005442844 0.030003548 0.0391434 0.058875766
0.014322024 0.0024507174 -0.03928211 0.089441486 -0.0011631731 0.036475882 0.034924958 0.011325126
-0.009972201 -0.015035357 -0.0055376305 0.032185797 -0.0070772017 0.044118386 -0.0028708563 0.028972842
0.00478542 0.043825958 0.056439284 -0.0023443352 0.022623671 0.014599802 0.042697247 0.0070132404
-0.00593402 -0.020071281 0.083369456 -0.005420336 0.00054454466 0.014955741 0.006279425 -0.02640546
-0.03636543 -0.026772227 -0.008922785 0.035881206 2.4140012e-05 -0.0063222093 -0.025387391 0.03758933
0.06476285 0.015881483 0.009406081 0.041420657 -0.011855976 0.014854124 -0.012676085 0.033728443
-0.009160074 0.0045505944 0.007859733 -0.010160775 -0.013872284 0.04723853 -0.008912719 0.00588879
-0.0046376265 -0.05262771 -0.017259583 0.03300724 0.040120553 -0.021458967 -0.012489196 0.024796072
0.06937382 0.0006338167 0.025425322 -0.0056617144 0.028202042 -0.037164487 0.030960608 0.004686466
0.05420771 0.027602317 -0.03935376 -0.030265324 0.027471686 0.014568737 0.022628948 0.035955694
0.022706036 0.012160405 0.07324192 0.029109966 -0.018738344 -0.06237102 0.0040287306 0.05210442
0.01979332 0.0035045722 0.008207085 0.049124185 0.006939075 -0.0010699172 -0.015095308 0.054808024
-0.03535996 0.0011256946 -0.009067859 -0.0045348983 0.037007045 -0.017897043 0.0026244943 -0.037061088
0.035241034 -0.0032994633 0.006630925 -0.004083894 0.050121114 0.014043357 -0.013929655 0.016292349
-0.056763485 -0.02285561 -0.0029678193 0.016411792 0.0017295826 -0.018354535 0.06630531 0.028758567
-0.036995713 0.00016141635 0.039334223 0.029582616 0.012033301 0.012235374 0.03174709 0.035919912
-0.0058119153 -0.016799344 -0.027175924 -0.009749525 -0.060647197 0.0041034315 0.05927898 0.021455737
-0.029604487 -0.008398318 -0.034927208 -0.012710038 -0.02288363 -0.019168241 0.007259514 -0.019159462
0.0042103636 -0.02438688 -0.0065599983 -0.011024285 0.0048314985 0.030755391 -0.00075546803 -0.009345105
00000000: 408f 38bd 7855 ff3b a23d 22bd 2bdd b13c
00000010: c5fd b6bc 3a9b debc 29cb d2bc 637d 77bc
00000020: ac92 87bc 175c eb3b 1ac7 acbc bd95 71bc
00000030: b3e6 793c 5515 bcba 6b65 1fbc 2c67 983c
00000040: 9aa8 23bc 7aa1 d7bc 7bcb a03d 4648 0dbd
00000050: b9d1 9a3c 57bb 3abc fc5d c93c 50f2 e93b
00000060: 2c72 b13c 25a0 aabc 95d4 bb3c 9ff8 adbc
00000070: b074 a23b 5b3c 66bc 2f55 b1bc 868e 16bd
00000080: 7f3f e23c a0e6 b2bc 5236 89bd 9169 54bd
00000090: d31b b3bc 8bf7 b8bc b200 b5bb 2d33 6a3c
000000a0: f965 f5ba e864 bbbb b5a0 823d 6892 4dbc
000000b0: ff8a 92bc a4b7 3a3b 8b32 273c df58 09bd
000000c0: 77f0 40bd a338 e0bc f6f7 1dbb 956d bfbc
000000d0: 7e9e eebc f3a2 f7bc 3262 55bb 0492 58bd
000000e0: cad5 433d d4c0 d73c 9438 0abc 0dc1 f1bb
000000f0: e172 5b3b 2791 923d ca18 113c b496 ce3c
00000100: 321d 02bd 6353 7b3b 5a33 153d c82b 1f3c
00000110: 3bda 243d 479f 90bc d024 513c 6e21 2ebc
00000120: a362 ee3c 2251 423b ef8c 84bb bfe5 303b
00000130: 69ec 713c ca5e cabc ea31 a5ba 1f48 fa3c
00000140: a603 cb3c 7fd7 be3b 810f 3d3c 1ebf 27bd
00000150: acb9 f6bb b9d5 423d 7436 c03c 3f32 b7bb
00000160: 3001 57bc cf3f 193d 1852 26bd 6838 e1bc
00000170: 332c 793c 4ba5 823b 1f23 293b 1784 853c
00000180: 3427 4dbc 62b1 dcbc ca3b bbbb b30e 873c
00000190: 4fae 0eba 00ca f53c d454 203d b727 713d
000001a0: eca6 6a3c 379c 203b 47e6 20bd 192d b73d
000001b0: 9d75 98ba bc67 153d 790d 0f3d 058d 393c
000001c0: 7162 23bc dc56 76bc 0375 b5bb 41d5 033d
000001d0: dfe7 e7bb 7bb5 343d fa24 3cbb 7458 ed3c
000001e0: 03cf 9c3b d982 333d e12c 673d 6ba3 19bb
000001f0: 4755 b93c 0234 6f3c 4fe3 2e3d 53cf e53b
00000200: 2b72 c2bb 876c a4bc 9bbd aa3d 139d b1bb
00000210: c6bf 0e3a ed08 753c a3c3 cd3b 4350 d8bc
00000220: ebf3 14bd 6e51 dbbc df30 12bc 2cf8 123d
00000230: 4880 ca37 892a cfbb 38f9 cfbc 45f7 193d
00000240: 63a2 843d e219 823c f71b 1a3c b5a8 293d
00000250: 913f 42bc b65e 733c 5baf 4fbc d626 0a3d
00000260: 2314 16bc 271d 953b 1cc6 003c 6179 26bc
00000270: 9448 63bc 307d 413d a706 12bc c0f6 c03b
00000280: 3bf7 97bb 2790 57bd f863 8dbc 9a32 073d
00000290: 7355 243d b7ca afbc 7c9f 4cbc 2221 cb3c
000002a0: dd13 8e3d b826 263a c448 d03c e785 b9bb
000002b0: f807 e73c ca39 18bd 1aa1 fd3c ed90 993b
000002c0: e708 5e3d 411e e23c 6931 21bd fcee f7bc
000002d0: 4d0c e13c b6b1 6e3c 5860 b93c 4746 133d
000002e0: 0202 ba3c 6f3c 473c dcff 953d 0678 ee3c
000002f0: 2881 99bc c178 7fbd 7103 843b 726b 553d
00000300: 9a25 a23c f7ac 653b 0277 063c 7136 493d
00000310: 2e61 e33b 773c 8cba 5052 77bc 617e 603d
00000320: 9bd5 10bd 0b8c 933a 5b91 14bc 7c99 94bb
00000330: b394 173d d29c 92bc b5ff 2b3b 5ecd 17bd
00000340: e758 103d cf3b 58bb 3b48 d93b 30d2 85bb
00000350: cc4b 4d3d 1c16 663c 3539 64bc 8877 853c
00000360: d480 68bd b03b bbbc bf7f 42bb 0672 863c
00000370: 29b3 e23a 405c 96bc 14cb 873d 1697 eb3c
00000380: d188 17bd df41 2939 ec1c 213d 3e57 f23c
00000390: 5327 453c e176 483c 3d09 023d c220 133d
000003a0: e171 bebb c79e 89bc 0ba0 debc 79bc 1fbc
000003b0: 3269 78bd 1476 863b 84ce 723d f1c3 af3c
000003c0: 1c85 f2bc 1999 09bc d50f 0fbd c33d 50bc
000003d0: 7376 bbbc b706 9dbc 38e1 ed3b 4ef4 9cbc
000003e0: 17f7 893b ffc6 c7bc 41f5 d6bb 349f 34bc
000003f0: 8c51 9e3b bbf2 fb3c 9a0a 46ba 361c 19bc

network_body._body_endoder.seq_layers.0.weight f4 [256, 43]
-0.08650314 -0.059061512 -0.28026587 0.076872714 0.06816243 -0.12393313 0.3654128 0.07006499
0.22654232 0.0027587973 0.1957604 0.2566618 0.03401676 -0.08507821 0.18921398 -0.056149386
-0.043050133 -0.12894008 -0.18430156 -0.047437865 0.035578713 -0.16230977 0.018213797 0.060420014
0.08034044 -0.2755033 -0.21155761 -0.12513714 -0.30771366 -0.25090492 0.22153266 -0.008232155
-0.12784089 -0.010500553 -0.25431815 0.13498351 -0.089657396 0.2062977 0.35371092 -0.004759705
-0.2628656 -0.018781487 -0.24767691 -0.06960511 0.17429632 -0.10564092 0.2740925 0.1666314
0.018783618 0.0636398 -0.12708496 -0.18302657 0.13954726 -0.075735845 0.2779688 0.1609474
-0.031058466 -0.031022519 0.07363263 -0.4451221 0.1270105 0.1459326 0.09902433 0.1696215
-0.1351372 -0.15949675 -0.14536627 -0.13753368 -0.07829676 0.027260136 0.19396244 -0.097259
-0.0052443575 -0.06780982 -0.09552988 -0.21082543 -0.090500794 0.12745155 0.12507708 -0.13928391
-0.060648277 0.1219181 0.018543167 -0.061659995 -0.03633045 0.08210556 -0.074630916 -0.27503943
-0.042650886 -0.15909865 -0.07575322 0.07816969 0.10956931 -0.03665672 -0.030828467 -0.11652125
0.13396661 -0.2573726 0.110665 -0.033849847 0.060294103 -0.16453849 -0.07698244 0.112240024
-0.33512473 0.2096368 -0.01621845 -0.22939694 0.028323434 -0.24817087 0.0037467794 0.08024367
0.13111791 -0.12624204 -0.16376166 -0.009101286 -0.07837997 -0.25521886 0.23811312 -0.20450047
-0.37532142 -0.19753638 -0.08994772 -0.06954352 0.09395692 0.072242245 -0.099500485 0.08855001
-0.08400749 0.21555564 0.045958526 -0.17224516 0.0016448955 0.11871121 0.2053785 -0.0890548
-0.06614228 0.045954216 0.059956897 -0.03448688 -0.1312272 0.29225639 -0.038431246 0.15881082
-0.06998588 0.30673814 0.08631442 0.017429989 -0.070541464 -0.13822193 -0.089201465 0.045539126
0.06895346 0.026441352 -0.07723966 -0.05324148 -0.08259897 0.0023820281 -0.21200156 -0.21588463
-0.08696226 -0.051656358 0.15561904 0.21502516 -0.22115667 0.00071029115 0.34480268 0.2840684
0.159137 0.014556886 -0.01712483 0.022496149 -0.06946825 -0.09243785 0.1535993 0.10014696
-0.03496237 0.022893399 0.15980224 -0.02484162 0.106005035 0.20677052 0.11251806 0.026849898
-0.043783847 -0.052712902 -0.0070898756 0.04018716 0.24889137 -0.02637719 -0.08099348 -0.0927785
-0.31001052 -0.08288572 0.24654411 -0.007296677 -0.22697236 0.0312589 0.041339513 -0.16045447
0.14705321 -0.13222212 0.026571611 0.01719485 0.0989202 -0.16001661 0.07555933 0.021702982
-0.16609107 0.15235354 0.2789575 0.010750636 -0.033018824 0.060274232 -0.28838697 0.19487633
0.10420771 -0.08713191 0.027267627 -0.11402633 -0.008267234 0.109459154 -0.14152509 0.034430373
0.053150143 0.10943725 0.1451483 0.19274336 0.36675563 -0.0541394 -0.06170087 0.019030184
-0.06078257 0.078820124 0.1620997 0.12812462 -0.13854575 0.10991887 0.40899044 0.044969756
-0.005633038 -0.019349359 -0.12635875 -0.15499346 0.027379958 -0.07315464 0.22575957 -0.4173132
0.1944164 0.06286486 -0.17731452 0.33449602 0.18849377 0.13167685 0.2770494 -0.11747246
00000000: 8f28 b1bd 7cea 71bd 027f 8fbe 716f 9d3d
00000010: be98 8b3d a7d0 fdbd 6317 bb3e 3c7e 8f3d
00000020: b6fa 673e f0cc 343b 6a75 483e 2d69 833e
00000030: 2855 0b3d 7c3d aebd 4fc1 413e e6fc 65bd
00000040: 5655 30bd de08 04be 8cb9 3cbe 354e 42bd
00000050: fcba 113d 8834 26be 1a35 953c fa7a 773d
00000060: 8789 a43d c50e 8dbe 8fa2 58be f323 00be
00000070: a58c 9dbe 9c76 80be 75d9 623e 29e0 06bc
00000080: b9e8 02be 830a 2cbc fd35 82be 1e39 0a3e
00000090: 4c9e b7bd b43f 533e 9919 b53e 4df7 9bbb
000000a0: 5296 86be a2db 99bc 049f 7dbe 208d 8ebd
000000b0: bc7a 323e 445a d8bd da55 8c3e 6ca1 2a3e
000000c0: 1ae0 993c 9555 823d 8f22 02be 516b 3bbe
000000d0: 7ae5 0e3e 651b 9bbd ed51 8e3e 65cf 243e
000000e0: 536e febc f022 febc b4cc 963d 0be7 e3be
000000f0: 0a0f 023e 5b6f 153e 45cd ca3d 42b1 2d3e
00000100: 6861 0abe 1e53 23be e5da 14be a1d5 0cbe
00000110: 0d5a a0bd a650 df3c 179e 463e ba2f c7bd
00000120: dcd8 abbb e0df 8abd 2ba5 c3bd 9fe2 57be
00000130: 7b58 b9bd a982 023e 3514 003e 71a0 0ebe
00000140: 546a 78bd 32b0 f93d d7e7 973c 318f 7cbd
00000150: 3dcf 14bd f626 a83d 18d8 98bd f8d1 8cbe
00000160: b2b2 2ebd c2ea 22be 8124 9bbd 6e17 a03d
00000170: e065 e03d 5b25 16bd fb8b fcbc b1a2 eebd
00000180: 8b2e 093e 57c6 83be 55a4 e23d 23a6 0abd
00000190: f3f6 763d c77c 28be f8a8 9dbd 19de e53d
000001a0: 7895 abbe 08ab 563e 8edc 84bc 08e7 6abe
000001b0: 8c06 e83c 8120 7ebe 878c 753b cb56 a43d
000001c0: c643 063e 9845 01be 23b1 27be 8f1d 15bc
000001d0: ad85 a0bd 0cac 82be edd3 733e 9268 51be
000001e0: 212a c0be fa46 4abe 8336 b8bd d56c 8ebd
000001f0: 7c6c c03d bef3 933d e9c6 cbbd b559 b53d
00000200: 1e0c acbd 9eba 5c3e 023f 3c3d 0961 30be
00000210: 8999 d73a dd1e f33d be4e 523e 5d62 b6bd
00000220: 9b75 87bd 7d3a 3c3d 5d95 753d 1d42 0dbd
00000230: 6c60 06be a1a2 953e 156a 1dbd 4e9f 223e
00000240: c254 8fbd c80c 9d3e 9dc5 b03d 56c9 8e3c
00000250: 0b78 90bd 0d8a 0dbe 42af b6bd 3c87 3a3d
00000260: 7937 8d3d 899b d83c d42f 9ebd bd13 5abd
00000270: a629 a9bd cd1b 1c3b f016 59be dc10 5dbe
00000280: 4519 b2bd 9e95 53bd 995a 1f3e 8e2f 5c3e
00000290: e576 62be d532 3a3a fa89 b03e 6a71 913e
000002a0: cff4 223e 0180 6e3c 5f49 8cbc d849 b83c
000002b0: 5f45 8ebd 0e50 bdbd 2349 1d3e d919 cd3d
000002c0: b434 0fbd f08a bb3c 33a3 233e a780 cbbc
000002d0: 2b19 d93d a7bb 533e de6f e63d 51f4 db3c
000002e0: b156 33bd 7ce9 57bd 3052 e8bb 4b9b 243d
000002f0: 61dd 7e3e fa14 d8bc e9df a5bd a702 bebd
00000300: b3b9 9ebe fdbf a9bd 0f76 7c3e f718 efbb
00000310: 716b 68be 5509 003d 9f53 293d 2d4e 24be
00000320: 1e95 163e 3c65 07be b5ac d93c 37dc 8c3c
00000330: ac96 ca3d 65db 23be dabe 9a3d 74ca b13c
00000340: c713 2abe 9102 1c3e 84d3 8e3e 7023 303c
00000350: bf3e 07bd 1de2 763d 75a7 93be a98d 473e
00000360: da6a d53d 3772 b2bd 5c60 df3c a386 e9bd
00000370: 4b73 07bc 1f2c e03d f4eb 10be dd06 0d3d
00000380: f7b3 593d a320 e03d c2a1 143e 845e 453e
00000390: 65c7 bb3e 47c1 5dbd 0dba 7cbd 30e5 9b3c
000003a0: 25f7 78bd 726c a13d 77fd 253e 1a33 033e
000003b0: f0de 0dbe 251d e13d 3267 d13e 3532 383d
000003c0: 5995 b8bb 8c82 9ebc 3064 01be 9bb6 1ebe
000003d0: ef4b e03c 1ad2 95bd 842d 673e 13aa d5be
000003e0: 1815 473e 4bbf 803d f091 35be 1043 ab3e
000003f0: 8304 413e 4cd6 063e 6bd9 8d3e 6795 f0bd

network_body._body_endoder.seq_layers.2.bias f4 [256]
-0.00755024 0.010360391 0.009161713 0.0021211184 -0.008833905 0.0054575494 0.019341242 0.01818216
-0.0025396815 -0.005184435 0.015865315 0.015169246 0.0065329135 0.023336252 0.019329166 0.013051219
-0.011469762 0.013741701 0.013506401 0.012867589 0.0021374403 -0.00313572 0.015973978 -0.022931898
0.004939821 0.006937753 0.0022807599 -0.0056491033 0.009472096 0.019267203 0.016360827 0.016864298
0.02653293 0.024693634 0.0027334145 -0.014242042 0.009380079 -0.006143492 0.015256082 -0.017495327
0.00011353335 -0.0010251143 0.018801231 0.0090027405 0.0172705 0.0026952014 0.006397189 0.0005172683
-0.0073798783 0.0025551326 0.00608343 0.0024824732 0.035859786 0.0066415444 -0.0104405815 0.009092133
-0.020665366 -0.0047752536 -0.02013458 0.013430067 0.011711977 0.02095824 0.029091895 0.013768119
0.015046718 -0.00042134488 0.012972194 0.009043222 -0.002316545 0.02723469 0.011010139 0.0079642385
-0.008429256 0.003104331 -0.006129578 0.0032802548 -0.0033372527 0.0044813002 -0.0019414288 0.016680421
0.009800136 0.0074664042 -0.0148556335 -0.0039481544 0.010131836 -0.046688966 0.012411677 0.014034803
-0.007318875 0.0103005385 0.005452405 0.0057895626 0.010126944 0.009922991 0.012324357 0.0126833655
-0.01373117 -0.0018658027 -0.00466288 0.00021091379 0.012922216 0.0035422838 0.010411582 0.00400306
-0.011900263 0.0007104902 0.016204743 -0.00070238835 0.013344732 0.00456269 -0.004866628 0.008962739
0.006063066 0.013845059 0.0062543503 -0.005075335 -0.0074800057 0.030288981 -0.0040927185 -0.014381528
-0.003877646 -0.005270317 0.0023828282 -0.008152934 0.0075327 -0.02039948 -0.0023229148 0.0017196832
0.0027692586 -0.0021345434 -0.0059776544 0.0131450845 -0.0016006484 0.0048391726 0.022783915 0.016615482
-0.008785474 0.009751564 -0.0029472515 0.029399665 -0.001012283 -0.009332144 0.009394349 0.008655419
-0.0027060697 0.05389514 0.012886393 -0.0035908932 0.023197997 0.010527008 -0.0115301255 0.008483675
-0.019624999 0.014604005 0.010077165 0.005050477 0.023822606 0.00463921 -0.0031040572 0.0070437905
0.0047277356 -0.019456293 0.0049400534 0.0035942541 0.011723803 0.000735158 -0.0027586608 0.013733769
0.009855476 0.0046697496 -0.007949047 -0.009374496 0.014518348 0.016566725 -0.010557271 0.015867209
0.02509635 0.010230598 0.0022685393 -0.008089824 0.012452234 0.01016778 0.0052309544 -0.001148276
0.007959832 -0.00223093 0.006983542 0.017875645 0.018460156 3.826293e-05 0.0058878134 0.011976019
-2.9554358e-05 -0.009704393 -0.0065177674 0.011686965 -0.00026892414 0.011578655 -0.013426178 -0.01175756
0.001860054 -0.011861062 -0.01339025 0.00933436 0.009592794 -0.0008924801 0.0014396377 -0.005978982
-0.0017491936 0.0112633705 0.013129836 0.015663376 -0.0021960733 0.00099577 0.0002071435 0.015084462
0.012094462 0.0045164106 0.024798024 0.005892547 0.038902268 0.0079465555 -0.011836392 0.015288414
0.00712454 0.009881098 -0.005857751 0.015380571 0.00680892 0.0067762835 0.01456939 0.006601683
-0.0050526415 0.0066892165 -0.0028213358 -0.005949587 0.025691722 0.014609575 -0.002251847 -0.0018572465
0.0057387915 0.014717615 -0.016955337 -0.0038697599 0.011463857 -0.009979528 -0.009087917 -0.003697781
0.014664094 -0.015809141 0.017278774 0.010779507 0.014383233 0.00090678997 0.029700203 -0.0024262974
00000000: 0168 f7bb a1be 293c 021b 163c 7602 0b3b
00000010: 15bc 10bc 3ed5 b23b 8671 9e3c c1f2 943c
00000020: c970 26bb 31e2 a9bb faf7 813c 6e88 783c
00000030: 0d12 d63b ab2b bf3c 3358 9e3c c8d4 553c
00000040: abeb 3bbc df24 613c f449 5d3c 94d2 523c
00000050: 4c14 0c3b a780 4dbb dcdb 823c addb bbbc
00000060: 39de a13b 1756 e33b cd78 153b 1d1c b9bb
00000070: da30 1b3c 41d6 9d3c 2407 863c ff26 8a3c
00000080: 965b d93c 4e4a ca3c 1623 333b 7457 69bc
00000090: e7ae 193c 594f c9bb a5f4 793c 5c52 8fbc
000000a0: c118 ee38 215d 86ba 0a05 9a3c 3b80 133c
000000b0: dd7a 8d3c faa1 303b 839f d13b 4a99 073a
000000c0: e8d2 f1bb 0374 273b 8257 c73b fdb0 223b
000000d0: b6e1 123d 50a1 d93b f90e 2bbc 2bf7 143c
000000e0: 6a4a a9bc bb79 9cbb 46f1 a4bc c909 5c3c
000000f0: 98e3 3f3c 9db0 ab3c 2052 ee3c ad93 613c
00000100: 8286 763c f4e7 dcb9 5389 543c 062a 143c
00000110: 2dd1 17bb 491b df3c df63 343c 707c 023c
00000120: dd1a 0abc 0872 4b3b a1da c8bb 8bf9 563b
00000130: cfb5 5abb dfd7 923b 8a77 feba 61a5 883c
00000140: c090 203c bda8 f43b 0b65 73bc 855f 81bb
00000150: 0000 263c ee3c 3fbd 595a 4b3c 3bf2 653c
00000160: 2cd3 efbb 97c3 283c 17aa b23b 5fb6 bd3b
00000170: 7beb 253c 0a94 223c 1aec 493c e4cd 4f3c
00000180: b4f8 60bc f38d f4ba 13cb 98bb bd28 5d39
00000190: b4b7 533c a925 683b 5795 2a3c 1a2c 833b
000001a0: 52f9 42bc 3140 3a3a cfbf 843c 7c20 38ba
000001b0: dda3 5a3c 9e82 953b 3c78 9fbb 74d8 123c
000001c0: afac c63b 63d6 623c 4bf1 cc3b ff4e a6bb
000001d0: d61a f5bb 9920 f83c 361c 86bb 80a0 6bbc
000001e0: 1b20 7ebb a0b2 acbb 3929 1c3b e293 05bc
000001f0: ded4 f63b cf1c a7bc 0b3c 18bb fe66 e13a
00000200: 737c 353b b2e3 0bbb 33e0 c3bb 7b5e 573c
00000210: d9cc d1ba ec91 9e3b 55a5 ba3c 311d 883c
00000220: f3f0 0fbc 06c5 1f3c ad26 41bb 91d7 f03c
00000230: 95ae 84ba d9e5 18bc c1ea 193c 75cf 0d3c
00000240: 5158 31bb 26c1 5c3d 7321 533c 3155 6bbb
00000250: ba09 be3c 7979 2c3c dae8 3cbc 1dff 0a3c
00000260: 9bc4 a0bc a345 6f3c b21a 253c 797e a53b
00000270: a027 c33c 8404 983b 706d 4bbb 99cf e63b
00000280: 1feb 9a3b ce62 9fbc 2ce0 a13b 948d 6b3b
00000290: 3215 403c 9eb7 403a a6ca 34bb 9a03 613c
000002a0: dd78 213c b304 993b b83c 02bc 7c97 19bc
000002b0: 5dde 6d3c f1b6 873c 67f8 2cbc f3fb 813c
000002c0: dc96 cd3c 3d9e 273c c6ab 143b 2e8b 04bc
000002d0: 7404 4c3c c396 263c 6d68 ab3b c081 96ba
000002e0: f569 023c cb34 12bb 32d6 e43b f26f 923c
000002f0: c139 973c 827c 2038 8fee c03b 1037 443c
00000300: 80eb f7b7 2dff 1ebc ff92 d5bb af7a 3f3c
00000310: 63fe 8cb9 66b4 3d3c 79f9 5bbc c8a2 40bc
00000320: 0ecd f33a e654 42bc c762 5bbc 25ef 183c
00000330: 182b 1d3c 53f5 69ba 3ab2 bc3a 56eb c3bb
00000340: 3345 e5ba 008a 383c 861e 573c 7b50 803c
00000350: ffeb 0fbb 7f84 823a a934 5939 d224 773c
00000360: da27 463c 66fe 933b 3a25 cb3c 4416 c13b
00000370: fc57 1f3d 4532 023c 6ded 41bc 427c 7a3c
00000380: f974 e93b 54e4 213c 60f2 bfbb cafe 7b3c
00000390: 5c1d df3b 960b de3b 73b4 6e3c ee52 d83b
000003a0: a190 a5bb 3731 db3b 29e6 38bb c1f4 c2bb
000003b0: 7277 d23c 005d 6f3c b993 13bb da6e f3ba
000003c0: 790c bc3b 2722 713c ebe5 8abc cc9b 7dbb
000003d0: e7d2 3b3c 2d81 23bc 7de5 14bc 7856 72bb
000003e0: ab41 703c 2c82 81bc 378c 8d3c 889c 303c
000003f0: a7a7 6b3c a5b5 6d3a d74d f33c 8402 1fbb

network_body._body_endoder.seq_layers.2.weight f4 [256, 256]
-0.047676407 -0.05458178 0.024784885 -0.01020449 -0.045002546 0.03519113 0.027616208 0.048205175
0.030977497 -0.033203986 -0.04079309 -0.035250913 0.027703904 -0.082229495 0.0011339302 -0.07550658
0.007413444 -0.025565116 -0.057230443 -0.0022369716 -0.04240005 -0.011688013 0.012533292 -0.108478725
0.15713364 -0.061780572 -0.05915424 -0.048904024 0.021535454 -0.15739532 -0.04662284 -0.05659817
0.11984677 -0.025779646 0.030047042 -0.051595245 0.12902033 0.071562946 0.00840916 0.07924775
-0.052847795 0.03433332 -0.028360693 0.06862187 0.18923786 -0.11110536 0.017902507 0.073248856
-0.049940728 0.012665984 0.0059915115 0.0046199095 -0.059810687 -0.053425964 0.14476855 -0.06168923
0.15519792 0.013882214 -0.06196734 0.109108604 -0.04980983 0.05365119 -0.05573093 -0.0150290895
-0.12105091 0.010740022 0.041629825 -0.14765821 0.08429583 0.099205114 -0.00935022 -0.06851953
-0.060491998 -0.12119119 0.014395044 0.01632228 -0.06188919 0.0046867565 0.033869274 -0.104172066
0.021008898 0.072470985 -0.13302062 -0.060371883 -0.026776727 0.10247784 -0.12441199 -0.14488691
-0.020925501 0.017178297 -0.08076338 0.0537063 -0.054367907 -0.04302882 -0.044309653 0.063229546
-0.020274276 0.027562747 -0.14789742 0.13053489 -0.051019218 0.052301977 -0.061364777 0.04844291
0.14818422 -0.06047002 0.11113698 -0.016307436 0.029113827 0.10514519 0.016358167 -0.17002212
-0.06639809 0.104895666 0.010401978 0.022431351 -0.040275812 0.07027844 -0.03984371 0.18632469
0.09114231 0.023867 -0.030767396 -0.109584205 0.21925825 -0.050160844 -0.08120158 -0.015658852
-0.11793063 0.025365688 0.073136695 0.04328744 -0.037292622 0.12904273 0.12590192 -0.09296857
0.01918898 0.017530994 0.00957549 -0.0011098444 0.11141038 0.059837274 0.05202923 0.013307846
-0.006966586 0.019315232 -0.016844638 0.012183074 -0.118929334 0.04805171 -0.061869957 -0.02384495
-0.02004059 0.14107388 0.0013131406 -0.036905646 -0.029767308 0.052696064 -0.03566145 0.14455706
-0.057739154 0.01692132 -0.023509108 0.11454229 0.0763631 -0.19788052 -0.12763745 0.06869676
-0.054089244 0.021368476 0.09904358 -0.0260503 0.124636136 0.02455599 0.050956424 0.053785086
0.12764665 0.066083565 -0.0057105855 -0.028261682 0.017458051 -0.07312639 0.010351842 -0.04727178
-0.050832573 0.03504594 0.23791993 -0.03634821 -0.026241131 0.021312088 -0.026279626 -0.13937697
-0.07369688 -0.06668735 0.028906066 0.16972072 -0.15065622 -0.054224856 -0.108259924 0.073516846
-0.04126503 -0.068642184 0.052719455 -0.042739037 -0.10652918 -0.061720923 -0.09101562 -0.07044136
0.15806116 0.007022231 0.038146738 -0.038285095 -0.023767015 0.017914724 0.16033095 -0.04575373
0.0723799 -0.070612244 0.0009294784 -0.06973535 0.025094585 -0.080623396 -0.0042597135 -0.020782156
0.010727005 -0.12314199 -0.049712483 0.036997575 0.1256041 -0.055354316 0.05841641 -0.026394194
0.01811816 -0.053828496 -0.19197161 0.072672516 -0.0043386784 0.1119437 -0.07698806 0.040451065
0.10653501 0.071225286 -0.15442942 0.048690595 -0.022444151 -0.0562712 -0.067913525 -0.06498736
-0.039957236 -0.0665803 0.13452081 0.06799902 -0.010682147 -0.13252106 0.04287858 -0.009172128
00000000: 5648 43bd 2591 5fbd ac09 cb3c bc30 27bc
00000010: 9754 38bd 9324 103d 633b e23c ca72 453d
00000020: 85c4 fd3c e700 08bd a816 27bd 4363 10bd
00000030: 4cf3 e23c f067 a8bd 62a0 943a 32a3 9abd
00000040: 7aec f23b ef6d d1bc 786a 6abd 289a 12bb
00000050: adab 2dbd 147f 3fbc 7058 4d3c 182a debd
00000060: a4e7 203e a00d 7dbd b74b 72bd 964f 48bd
00000070: 1f6b b03c 3d2c 21be 97f7 3ebd 7cd3 67bd
00000080: 3972 f53d d62f d3bc 3725 f63c 8955 53bd
00000090: e81d 043e 988f 923d 93c6 093c a54c a23d
000000a0: ee76 58bd 18a1 0c3d af54 e8bc 9f89 8c3d
000000b0: 92c7 413e 358b e3bd 47a8 923c 7f03 963d
000000c0: a68e 4cbd fd84 4f3c 7154 c43b 9c62 973b
000000d0: 0dfc 74bd 2fd5 5abd 353e 143e d9ad 7cbd
000000e0: 34ec 1e3e 3a72 633c 77d1 7dbd 5574 df3d
000000f0: 6405 4cbd 5ac1 5b3d 1e46 64bd 923c 76bc
00000100: 8ae9 f7bd ebf6 2f3c 0984 2a3d b733 17be
00000110: 4ba3 ac3d 0d2c cb3d aa31 19bc f853 8cbd
00000120: 75c6 77bd 1633 f8bd 31d9 6b3c 4db6 853c
00000130: 857f 7dbd 5d93 993b 82ba 0a3d 2a58 d5bd
00000140: da1a ac3c ab6b 943d 8f36 08be 8248 77bd
00000150: de5a dbbc e7df d13d b7cb febd 3c5d 14be
00000160: f56b abbc 80b9 8c3c 4567 a5bd 23fb 5b3d
00000170: e2b0 5ebd fd3e 30bd 0a7e 35bd 7e7e 813d
00000180: 3d16 a6bc 45cb e13c 6c72 17be f0aa 053e
00000190: 87f9 50bd 993a 563d a259 7bbd 136c 463d
000001a0: 9bbd 173e 69af 77bd c99b e33d 2c97 85bc
000001b0: 1f80 ee3c 5d56 d73d 9001 863c 471a 2ebe
000001c0: b9fb 87bd 8ad3 d63d 0f6d 2a3c f4c1 b73c
000001d0: 40f8 24bd 25ee 8f3d 2833 23bd e6cb 3e3e
000001e0: d2a8 ba3d ba84 c33c e80b fcbc af6d e0bd
000001f0: 3c85 603e 7575 4dbd 044d a6bd fe46 80bc
00000200: 9d85 f1bd b4cb cf3c b1c8 953d 2c4e 313d
00000210: 26c0 18bd c723 043e 6fec 003e 4e66 bebd
00000220: 3532 9d3c 299d 8f3c 84e2 1c3c 3378 91ba
00000230: 202b e43d ee17 753d 9a1c 553d 2709 5a3c
00000240: f647 e4bb fa3a 9e3c c4fd 89bc 849b 473c
00000250: 3991 f3bd dfd1 443d 5a6b 7dbd 7c56 c3bc
00000260: 2a2c a4bc ac75 103e b01d ac3a 602a 17bd
00000270: 92da f3bc d4d7 573d be11 12bd c406 143e
00000280: e47f 6cbd 959e 8a3c 2c96 c0bc 2695 ea3d
00000290: 4264 9c3d 31a1 4abe 64b3 02be e3b0 8c3d
000002a0: af8c 5dbd f10c af3c 5cd7 ca3d 7067 d5bc
000002b0: 3b41 ff3d a529 c93c afb7 503d c04d 5c3d
000002c0: ceb5 023e d256 873d dd1f bbbb 0b85 e7bc
000002d0: 3004 8f3c 4ac3 95bd c69a 293c 0ea0 41bd
000002e0: d135 50bd 558c 0f3d 48a1 733e dce1 14bd
000002f0: a4f7 d6bc b096 ae3c 5f48 d7bc d6b8 0ebe
00000300: 64ee 96bd 6193 88bd 6acc ec3c 45cb 2d3e
00000310: a045 1abe e21a 5ebd 61b7 ddbd 0090 963d
00000320: 8505 29bd 4694 8cbd 5bf0 573d 210f 2fbd
00000330: f92b dabd 14cf 7cbd 6666 babd 8f43 90bd
00000340: c9da 213e be1a e63b c13f 1c3d d5d0 1cbd
00000350: 0bb3 c2bc e6c1 923c cc2d 243e 4368 3bbd
00000360: ea3b 943d 279d 90bd 3da8 733a 68d1 8ebd
00000370: 2993 cd3c e11d a5bd 1195 8bbb 573f aabc
00000380: 52c0 2f3c de31 fcbd 519f 4bbd c58a 173d
00000390: 5c9e 003e 35bb 62bd 0c46 6f3d a338 d8bc
000003a0: 896c 943c 457b 5cbd 3594 44be 54d5 943d
000003b0: 792b 8ebb bd42 e53d eaab 9dbd 04b0 253d
000003c0: 072f da3d 90de 913d bf22 1ebe ca6f 473d
000003d0: ccdc b7bc a17c 66bd 3f16 8bbd 1818 85bd
000003e0: 33aa 23bd 415b 88bd d3bf 093e 1243 8b3d
000003f0: 2c04 2fbc 9ab3 07be 73a1 2f3d b146 16bc
